week1/exercise3/mnist2.pt (torch, 35151 bytes, 8 tensors)

fc1.weight f4 [10, 784]
00000000: 58b9 b0be 4a66 aebe a68d bdbe fce7 823c
00000010: e516 003d e2f2 e13c 8c84 aebc d84a 30bc
00000020: 3056 e2bb 6083 a23c d0ba 213b 52a2 0abd
00000030: a274 f73c fc53 f5bc 8588 ccbc d848 f4bc
00000040: c03e 333c 8606 f03c ee7e 913c 8052 f5bb
00000050: 7921 073d 64ff 253c c81f a93b e0c7 15bc
00000060: 3a94 9abc 686e 0bbd b034 443b 089a d33b
00000070: 6469 bbbe 2332 aebe ff4a aabe 608a 963c
00000080: 8598 83bc 2783 393c d419 b0bd 4dbb 3fbe
00000090: e4cd 02be 968d 06bd 524e 6cbd faa4 61bd
000000a0: 4036 52be ffac 5ebe 9d9f 81bd 809b a8bd
000000b0: bc49 9ebd 82e8 c3bd ea2c b4bb a68a aabd
000000c0: 744e cfbc 5f52 78bd b15a 07bd e815 99bd
000000d0: 9cd6 ba3c 00c0 d9bb 9ce0 03bd 33dd 88bc
000000e0: 0e2b a9be d982 c3be bafd a7be 9434 df3b
000000f0: 9e16 b5bc 8937 1abc 1ac5 d2bd 9288 71be
00000100: 33bd 6ebe 4927 0abe 35d2 9bbe 87f8 4bbe
00000110: 3c8c b1be 877d 81be e494 f9bd 0962 b4bd
00000120: 7840 443d f436 70bd c5a3 13be 3e7f 32be
00000130: 9f38 4cbe 2df2 33be 0985 15be 7aaa ebbd
00000140: 5c22 51bd 5ae0 e03c c64c 0bbd f50a 0b3d
00000150: e292 803c b8ad cebb 9025 04bd de1c 303c
00000160: 1bc1 173d 1c13 1d3b e288 06be 2a5b 6fbe
00000170: 0f3a b7be 0eb2 fdbe db47 cbbe 4632 9ebe
00000180: 3fc0 0cbf 09bb 13bf 5d85 3dbe 2d43 25be
00000190: 5f75 353e 41ba 1abc 0cec 7dbd b479 013e
000001a0: efeb 5b3b b85f 14b9 4f8c 9c3d f51b 12bb
000001b0: da4f e6bc a787 6dbc 3127 163d 0004 0e3b
000001c0: 00d8 2dbc 9b2e 94bc da80 47bc 242d 103d
000001d0: c89f a93d d6f2 23be d51b a6be 9bd8 fcb9
000001e0: 43b9 1abe f659 c2be ed85 b6be c8bd cfbe
000001f0: 736d bbbe 804a 45bc 6c55 06bf 91e0 b7be
00000200: 1ce7 32be 6393 063c 3864 7abe 68d8 eb3c
00000210: 6062 933e d074 c43e b5a8 8b3e fa72 3f3e
00000220: f538 503e ae26 a6bd 4fef bcbd 365e 93bc
00000230: 803d 993b 92a0 f63c 0e0a 20bd 0bca aebc
00000240: f39f cf3c 4513 81be 30aa a5be b59d 97be
00000250: c77a 233e 1b47 9c3c e228 91be 1f3d b83e
00000260: 4c90 4f3e 67fb 39bd 9c77 c4be 407f 413e
00000270: 7c2c 84be abbe a33d b549 78bd 0b74 97be
00000280: 6b16 95bd 827e 6a3e 6b64 953d 0c0b 6a3b
00000290: b319 533e 14bc 8ebd c5f9 c8bd b698 cd3b
000002a0: 98df ebbc acff be3c cd49 46bd ab04 503a
000002b0: a9c7 383e 7660 7f3e b750 1bbc 3928 41be
000002c0: 4564 453e 12cb 8d3e 2d82 4abe e996 44be
000002d0: 315a ebbd e583 4bbc 9eae 44be 4cb8 5dbe
000002e0: fb34 5fbe 24a9 bdbd 7d99 f8bc f429 c13c
000002f0: 8a17 78be 9f36 5fbd 0cb1 903d 4904 2b3e
00000300: f14f 1d3e d83e 803d 0d4d 033e 35a9 623d
00000310: cd23 5e3c 3f81 de3c 84d3 73bc b3e5 ee3d
00000320: b7c5 0f3c 6076 8cbd 6024 e4bd 1c07 82bd
00000330: c37a 703c aede fe3c 2566 6abe 5f5d fb3d
00000340: e957 97be 9c1f 183e b5ae a3be 94e2 7bbe
00000350: be0b 9a3d fafa 093e c3db dcbd a671 703d
00000360: 1e55 ccbd febf 3ebd 0530 aa3e 515a c73c
00000370: 9939 cf3e 200b c23e 79a9 903e 1cc9 6c3d
00000380: 5c0e bbbc 1e82 993c c0e7 673d fc44 a03d
00000390: 685c 24be 2c71 903e cb0f 233d f533 853d
000003a0: 39c2 23be 7383 043f a1c3 5d3d 9dc5 80bc
000003b0: 5f74 97bd bfd5 77be 4b2d 28be d682 0f3e
000003c0: 20e2 dbbe 3aed 1ebe f3f0 813e a4a7 633e
000003d0: 445a 393e 6dd2 bb3e 6f48 b13e 4f1e 0f3f
000003e0: f570 473f ebe7 ee3e 4fcc 193c 26eb 8bbd
000003f0: c1aa 9a3c 482e b0bb 4ee9 e43d fecc 483e
-0.34516406 -0.34062415 -0.37022132 0.01597976 0.031271834 0.027581636 -0.021303438 -0.010760032
-0.006907247 0.019838035 0.0024678 -0.033846207 0.030206982 -0.029947273 -0.024967441 -0.02981989
0.010940254 0.029299986 0.01776072 -0.0074866414 0.032990906 0.010131691 0.0051612593 -0.009141892
-0.018869508 -0.03404084 0.002993863 0.006457571 -0.36603844 -0.34022626 -0.33260342 0.01837653
-0.016063938 0.011322773 -0.08598676 -0.18723793 -0.12773854 -0.03284987 -0.05769188 -0.055088975
-0.20528507 -0.2174568 -0.06329272 -0.08232784 -0.077289075 -0.09565832 -0.0054985182 -0.08327226
-0.025305964 -0.06062543 -0.033045474 -0.074748814 0.022807412 -0.0066452026 -0.032196626 -0.016707039
-0.3304066 -0.38185766 -0.32810766 0.0068116877 -0.022105511 -0.009412655 -0.102915004 -0.23587254
-0.23314361 -0.13491549 -0.30433813 -0.19919024 -0.34677303 -0.25291082 -0.12186602 -0.08807761
0.047913045 -0.058646157 -0.14417942 -0.17431352 -0.19943474 -0.17572851 -0.1460153 -0.11507125
-0.05105816 0.02745073 -0.034008764 0.033945996 0.01569504 -0.00630733 -0.032262385 0.01074907
0.037049394 0.002396769 -0.13138154 -0.2337462 -0.35786483 -0.49549907 -0.3970326 -0.3089773
-0.54980844 -0.5770727 -0.18507905 -0.16138907 0.17720555 -0.00944382 -0.06199269 0.12644082
0.0033557375 -0.00014150038 0.07643949 -0.0022294496 -0.028114248 -0.014497674 0.03665847 0.0021669865
-0.01061058 -0.01808863 -0.012176717 0.0351993 0.08282429 -0.16010603 -0.3244311 -0.0004822657
-0.15109734 -0.3795926 -0.35649052 -0.4057448 -0.3660694 -0.012041688 -0.52474093 -0.35913518
-0.17470974 0.008213851 -0.24452293 0.028789714 0.28785992 0.3837037 0.2727715 0.18696204
0.20334227 -0.08112846 -0.09225332 -0.01798926 0.004676521 0.030105863 -0.03907209 -0.021336576
0.025344824 -0.25210014 -0.32356405 -0.29612508 0.15964805 0.019076874 -0.28351504 0.35984132
0.20269889 -0.04540577 -0.38372505 0.18896198 -0.2581519 0.079953514 -0.060617168 -0.2958072
-0.072796665 0.22899821 0.07294544 0.003571215 0.20615272 -0.06969467 -0.09813265 0.006274308
-0.028793141 0.023315273 -0.048410226 0.0007935266 0.18044914 0.2493914 -0.009479693 -0.18863
0.19276531 0.27693993 -0.1977622 -0.19198193 -0.11491812 -0.012421583 -0.19207236 -0.21652335
-0.21797554 -0.09260777 -0.030346626 0.023579575 -0.2422773 -0.05449545 0.07065019 0.16700853
0.15362526 0.062619865 0.12822361 0.05533715 0.01355834 0.027161239 -0.014881972 0.116649054
0.008775166 -0.06858516 -0.111397505 -0.06349012 0.014677706 0.031112041 -0.22890528 0.122736685
-0.29559258 0.14855808 -0.31969228 -0.24598151 0.07521771 0.13474646 -0.10784104 0.058702134
-0.09977172 -0.046569817 0.3323976 0.024335058 0.4047363 0.37899113 0.28254297 0.05780898
-0.022833996 0.018738803 0.0566175 0.07825658 -0.16050875 0.28211343 0.039809983 0.06504051
-0.15992059 0.51763076 0.054141644 -0.01571923 -0.07395243 -0.24202631 -0.16423528 0.14014754
-0.42945957 -0.15520182 0.25379142 0.22231919 0.1810084 0.3668398 0.34625575 0.5590562
0.77906734 0.46661314 0.00938709 -0.068319604 0.01888025 -0.005376611 0.11177312 0.19609448

fc1.bias f4 [10]
00000000: 2f30 e73f f181 e23f 9f8c 3a3f 41fc 5e3f
00000010: 9088 c73f 19d4 d83e 9bee 67be 8465 f23f
00000020: 5a29 cc3e 0704 a73e
1.806158 1.7695905 0.7287082 0.8710366 1.558855 0.42349318 -0.22649615 1.893723
0.398753 0.3262026

fc2.weight f4 [10, 10]
00000000: 3bb6 5abe 2731 1fbf 4625 7e3c 288c a7be
00000010: 3c88 273e 7be3 763c e5ba 1b3e c532 55bf
00000020: 4de3 1c3f 60bd b03f 66bb ba3f 0ddd 143f
00000030: 03d4 1c3d 6006 d53e 7d84 3ebe a6be 12bf
00000040: 3917 193e ec55 15bf 7a97 0cbf cbf0 0a3f
00000050: 1d3d 0340 326e 99bf e5bb 83bf 0fc1 9ebe
00000060: 28c2 373f 3c25 803d fad0 0f3e a63d 373f
00000070: e319 913f 71a5 063f 90b2 213f c61d 0ebb
00000080: 7cc3 3f3f 9037 06bf 362a 09bf 60eb 67bf
00000090: 4408 11be 42cb 693f fec3 dc3d 6124 af3e
000000a0: f720 883e 3a77 843f 03bb 9dbf 0fd1 d0be
000000b0: 22bd 74bf 66b6 e03f 9dc3 adbe f8bf 2bbf
000000c0: b66a 1b3f 658e f3be 3384 9fbc 402d 16be
000000d0: 0ca5 8c3e 7342 2f3f 5f13 e3be 1bd1 053f
000000e0: 22a3 78be 6b40 73be 04b9 973f 763f cbbf
000000f0: 85c8 79be 6f1b 9cbf 8d7a 8c3f e420 cdbd
00000100: ee3a 7f3f d9fa a73f f0e5 34bd 1c68 d4be
00000110: 6db9 f93e e347 95be 0b0e 213f ef8a efbe
00000120: 7e92 67bf d8ee 9ebf 1a03 88bf cf55 a5bf
00000130: 5c69 32bf 9f5e 6a3f a758 c5be d111 17be
00000140: 4217 babe b59c 233e c545 bdbe 8f14 b3bf
00000150: 23a6 ad3f 02d9 22bf 46ac 073f ab29 b5be
00000160: 3a48 aa3f d51e 0fbd 777e f43e a38d 273f
00000170: 4898 80bf ac92 45bf a857 f63e 21bb 2abf
00000180: 7853 65be f0bd 723f 9eea 5c3d dcb0 6a3e
-0.21358578 -0.62184376 0.015511816 -0.32724118 0.16360563 0.015068884 0.15208013 -0.83280593
0.61284333 1.3807793 1.458844 0.58149797 0.038288128 0.41606426 -0.18605228 -0.57322156
0.14950265 -0.5833423 -0.54918635 0.5427367 2.050605 -1.1986754 -1.0291716 -0.31006667
0.71780634 0.06257102 0.14044562 0.71578443 1.1336025 0.52596194 0.6316309 -0.0021685227
0.7490766 -0.5242853 -0.53580034 -0.9059353 -0.1416331 0.9132577 0.1077957 0.34207442
0.2658765 1.0348885 -1.2322696 -0.407845 -0.95601094 1.7555664 -0.33938304 -0.67089796
0.607097 -0.47569576 -0.019472217 -0.14665699 0.2746967 0.6846077 -0.44350716 0.52272195
-0.2428098 -0.23755042 1.1853337 -1.5878742 -0.24392898 -1.2195872 1.09749 -0.10016039
0.99699295 1.3123428 -0.044164598 -0.4148568 0.4877428 -0.29156408 0.6291205 -0.46785685
-0.90457904 -1.2416639 -1.0625947 -1.2916812 -0.69692016 0.9155063 -0.385442 -0.1475289
-0.3634587 0.15977748 -0.36967292 -1.3990649 1.3566326 -0.6361238 0.52997243 -0.35383353
1.3303292 -0.034941513 0.47752735 0.65450495 -1.0046473 -0.7717693 0.4811375 -0.66691786
-0.22395122 0.9482107 0.053934686 0.22919029

fc2.bias f4 [10]
00000000: 3d43 723f 5b10 ae3f 0ab3 47bf 8e21 a5bf
00000010: 367a 223f 3c60 703f 884b f03e 4164 2740
00000020: d360 ff3e 5439 343e
0.9463385 1.3598741 -0.78007567 -1.2900865 0.6346773 0.9389684 0.46932626 2.615494
0.4987856 0.17599994

fc3.weight f4 [10, 10]
00000000: bd8c 613b 31eb 71be 1987 063e 46a9 18bf
00000010: 8a9a a23f e127 f03e ba3e 353e eac7 a83e
00000020: aa1c 0f3e b042 3fbf 3b70 11bf 83b8 663f
00000030: 988a 02bc 962a b6be 1a88 12bf c065 523f
00000040: 5c0e 633f 7459 81bf 70f7 6abf 979d 9dbf
00000050: 4d4e 27be 24f2 11bf 2ed8 b8be 9572 703f
00000060: 149e 963d 9fc0 e23e 432d 7dbf 7ddc cc3e
00000070: a222 4d3f bcac cbbe 07f4 173f 6cf3 09be
00000080: 72d5 86bf c478 833e cdc4 4f3f ca41 72bf
00000090: 8666 1dbe 8867 a8bf bdf6 eebc 35be 3f3f
000000a0: efad 3b3e 4bbb ef3d 58e0 17bf 65a8 a73e
000000b0: dc2d 393f 8cb0 593f 6a1d cdbe a832 11bf
000000c0: 1acb 7cbe 9b72 2c3f d0e0 bebe a05d 87be
000000d0: 44fa a9be 2532 053f 5cc2 713e 4c69 253f
000000e0: 663a df3d 4b97 473f f57c 76bf df21 113e
000000f0: 7d0f 87be 7d9a 70bf fe74 503f e4bc 4ebe
00000100: c757 cf3e 65a5 e5be 9ce3 843e d20a 53bf
00000110: fb5a d33e 9a2b 7c3f 6879 b33f dbd0 ea3d
00000120: bd69 633e f09e 133d 7a30 a0bd e61d 5cbf
00000130: a9f4 d3bd 76d8 85bd d87e 27bf 04bb 77be
00000140: 9685 87be 1f1e 8f3f ebc9 59bf 4518 81bf
00000150: 1dc3 f63d b409 a2be 12d9 f6be d357 d83f
00000160: 471e cc3e f730 213e bf75 b23e a92a 053f
00000170: 6028 e03d de21 b63e 12c8 6b3f f059 cebe
00000180: a891 043e 9562 213e 18ce f43d 13ed cd3e
0.0034416162 -0.23624875 0.13137473 -0.5963329 1.2703412 0.46905425 0.1769971 0.32965022
0.13975778 -0.7471113 -0.56811875 0.9012529 -0.007967614 -0.35579365 -0.57238925 0.8218651
0.88693786 -1.0105424 -0.9178381 -1.2313718 -0.16338463 -0.570101 -0.36102432 0.9392484
0.0735437 0.44287583 -0.9889719 0.4001197 0.8013097 -0.39780223 0.5935673 -0.13471764
-1.0533888 0.25678074 0.8115967 -0.94631636 -0.15371141 -1.3156595 -0.029170388 0.7489961
0.18328069 0.11705645 -0.59326696 0.32745662 0.723356 0.85035014 -0.40061504 -0.5671792
-0.24686852 0.67362374 -0.37280893 -0.26438618 -0.3319875 0.5202964 0.23609298 0.64613795
0.108998105 0.7796523 -0.9628442 0.14173077 -0.26379004 -0.9398573 0.81428516 -0.20189244
0.40496656 -0.4485275 0.25954902 -0.82438385 0.4128035 0.9850403 1.4021425 0.11465617
0.22208305 0.036040246 -0.07821746 -0.8598312 -0.103493996 -0.06535427 -0.65427923 -0.24192435
-0.26469105 1.1181067 -0.8507373 -1.0085531 0.12048934 -0.31648028 -0.48212487 1.6901802
0.3986685 0.15741335 0.34855458 0.5201822 0.10945201 0.35572714 0.9210216 -0.40302992
0.12946188 0.15760262 0.11953372 0.40219936

fc3.bias f4 [10]
00000000: 915d a33f e752 8b3f 0abe e43e c978 a83f
00000010: c828 30be 431c c23f 2fae 09bf 9739 b03e
00000020: 644f dbbe c8e0 98bf
1.2762929 1.0884675 0.44676238 1.3161861 -0.17203057 1.5164875 -0.5378141 0.34418938
-0.42834008 -1.1943598

fc4.weight f4 [10, 10]
00000000: b863 5fbf 1d2e 013e b549 a53e 452b be3e
00000010: 61cc 9bbe a936 32be 4ac2 e8be cfbb 233f
00000020: b6f5 8abe 8541 603e a4ec 9f3e f08a e6be
00000030: e04e 4ebf f66c 47bf ce31 7a3f 5c45 f93e
00000040: b09b 3a3f 6a9b 41be a68b fd3d 3da4 a0bf
00000050: b229 8ebe ca6b 0f3e af89 be3e 78ac c53d
00000060: 861f 1cbf 95a7 6abe d32a 183f de8e b7be
00000070: d839 4dbe c6ae 0b3f 1a19 863f be17 2d3e
00000080: 577a af3e ef65 b83e 4d2f 213d 8c87 efbe
00000090: 264f 843e ec8e 94bd c4bd 6cbc 1ccb ab3d
000000a0: 6dfb a8bd da21 0abf a6f0 08bf 2de3 67bf
000000b0: 71a1 e63e 8eea a43e 63aa 03bf 9d47 033e
000000c0: 47a7 e2be d1de 693f b7a2 753f 44dc 213f
000000d0: 6cf9 25bd 6b6e a63e e7f2 abbe 75eb 843e
000000e0: 303b 1ebe 11aa 58bf 6515 ffbe 7d76 bb3e
000000f0: 4451 91bf 0497 42be 7727 6cbe a9e6 b93d
00000100: 987c a6bf 8638 983f b28b 2c3e 8b1a 473f
00000110: 907c bc3e 0ca7 94bf 5e4c f43d 4bbf 1d3f
00000120: 75fd 0bbe 288f c0bc 0f55 ed3e 96dd 5dbf
00000130: d794 df3e 005f e4bc fb24 413f 9f21 4d3e
00000140: b9ae 42be a9ee 423e c5f8 313f 626b 9d3e
00000150: 72e6 c23e d935 fb3a 65f7 6ebe aee1 8ebe
00000160: c9f8 bbbe 7db6 35be 7b6e b73e 181f 8cbd
00000170: 19f1 d2bb 608e 603e 3fed 533f 0803 95be
00000180: 38d7 93bf 85bd 9bbd 6759 1fbe 868f 1c3f
-0.87261534 0.12615247 0.32282797 0.37142387 -0.30429366 -0.17403664 -0.4546073 0.6395845
-0.27140588 0.21899994 0.3123523 -0.45027876 -0.80589104 -0.77900636 0.97732246 0.4868573
0.7289381 -0.18906942 0.123801515 -1.2550122 -0.27766186 0.14005962 0.3721442 0.096520364
-0.609856 -0.2291549 0.59440345 -0.35851187 -0.20041597 0.5456356 1.047641 0.16903588
0.34273025 0.3601527 0.03935175 -0.46783102 0.25841635 -0.07253823 -0.0144495405 0.083883494
-0.08251081 -0.53957903 -0.534922 -0.9058102 0.45045045 0.322102 -0.51431865 0.12820287
-0.44268247 0.91355616 0.9595141 0.63226724 -0.04052107 0.32506117 -0.33583757 0.2596089
-0.15452266 -0.846345 -0.4982101 0.36613837 -1.1352925 -0.1900292 -0.2306193 0.09077198
-1.3006773 1.189225 0.16850165 0.77774876 0.36813784 -1.1613479 0.119286284 0.61620015
-0.13670905 -0.023505762 0.46353957 -0.8666624 0.43668243 -0.02787733 0.7544705 0.20032357
-0.19011964 0.19036354 0.6952022 0.3074599 0.3806644 0.0019165828 -0.23336561 -0.27906555
-0.36713246 -0.17745395 0.35826477 -0.06841868 -0.0064374325 0.21929312 0.82783884 -0.29103875
-1.1550055 -0.07604507 -0.15561448 0.611565

fc4.bias f4 [10]
00000000: aeb6 a53f 5700 b63e e6f3 233f 82db 2cbf
00000010: 21fa e8bd 63fa 4b3f 0adb 363f 8504 bdbf
00000020: f2b3 14bd 6fd5 8cbf
1.2946374 0.35547134 0.64044034 -0.6752244 -0.11375833 0.79678935 0.7142798 -1.4767004
-0.03630442 -1.1002635
