week7/exercise4/censusOriginal.pt (torch, 17921 bytes, 12 tensors)

fc1.weight f4 [64, 13]
0	0x3df4b4ab	0.11948522
1	0x3c9c6f92	0.01909617
2	0x3e04084f	0.12893794
3	0x3dc69c80	0.09697819
4	0x3ec329d7	0.3811786
5	0x3d2099d8	0.039209217
6	0x3d8438e3	0.06456163
7	0xbe197ea8	-0.14989722
8	0xbcc3d5ba	-0.023905624
9	0x3de64438	0.112434804
10	0x3db7a1af	0.089663856
11	0xbe01ced3	-0.12676553
12	0xbc128a81	-0.008944155
13	0x3d1dc448	0.038517267
14	0x3d68bbcf	0.056819733
15	0x3e4a80f4	0.19775754
16	0x3d90c017	0.07067888
17	0xbe1c8fcc	-0.15289229
18	0xbbea7ae3	-0.0071557625
19	0xbdbd2db5	-0.092372335
20	0xbd6d787d	-0.057976235
21	0xbe3806d2	-0.17971352
22	0x3e2840f3	0.16431026
23	0xbe72552b	-0.23665302
24	0x3d1178c7	0.035515573
25	0xbd88e64d	-0.066845514
26	0x3d81a344	0.063299686
27	0xbdd91b3a	-0.10600896
28	0xbd67c0ee	-0.056580476
29	0x3e955eb0	0.29173803
30	0x3f129d3a	0.5727116
31	0xbdbf6a93	-0.09346499
32	0x3e8f4c44	0.27987874
33	0x3cce4253	0.02517811
34	0xbbdcb654	-0.0067356024
35	0x3fa0b033	1.2553772
36	0x3d132b1c	0.035929784
37	0x3e1bb142	0.15204337
38	0x3d3c5448	0.045978814
39	0x3d44add7	0.04801735
40	0xbdd8fe0f	-0.10595333
41	0x3e6c47d8	0.23074281
42	0xbe4bdbb6	-0.19908032
43	0xbdeecdc6	-0.11660342
44	0x3dbc608f	0.091981046
45	0x3dff4fb4	0.12466374
46	0xbd359e31	-0.044340316
47	0x3e67f1eb	0.22650878
48	0x3d90de3f	0.0707364
49	0x3d9b4dc9	0.07583196
50	0x3e4cb7f3	0.19992046
51	0xbe8deaaa	-0.27718097
52	0xbe1d5d94	-0.15367728
53	0xbe01c384	-0.1267224
54	0xbd02a665	-0.031896967
55	0x3e5f56a7	0.21810399
56	0xbeefe89d	-0.46857157
57	0x3e5e07f7	0.21682726
58	0xbea27864	-0.31732476
59	0x3e33489e	0.1750817
60	0x3e1de9af	0.15421174
61	0x3e9985d0	0.29984903
62	0x3e7da80b	0.24771135
63	0x3c20922b	0.009800474
64	0x3c606dc6	0.013698047
65	0xbe76b699	-0.24093093
66	0x3e68258b	0.22670572
67	0xbe5b760f	-0.21431755
68	0xbe36166e	-0.17781994
69	0x3e5e1a4e	0.21689722
70	0xbe2ad64a	-0.16683307
71	0xbcb9e4cf	-0.022692112
72	0xbd2ba1aa	-0.04190222
73	0x3e028959	0.12747706
74	0x3e421aee	0.18955585
75	0xbe50cc0a	-0.20390335
76	0xbe442e13	-0.19158201
77	0x3e3e93d2	0.18611076
78	0x3c1e49f3	0.009661186
79	0xbdaaa36a	-0.0833195
80	0x3dbc1cde	0.091851935
81	0xbdbbbd81	-0.091670044
82	0x3ebaa0d1	0.36450818
83	0x3d0d81e5	0.034547705
84	0x3e96df78	0.29467368
85	0xbe6f26c7	-0.23354636
86	0xbe92b2cc	-0.28652036
87	0x3e7474d1	0.23872687
88	0xbdcaf5f2	-0.099101916
89	0xbd119534	-0.03554268
90	0xbe67fb14	-0.22654372
91	0xbdb4c695	-0.08826939
92	0x3e029bdd	0.1275477
93	0xbd209791	-0.039207045
94	0xbd02f210	-0.03196913
95	0xbddab102	-0.10678293
96	0xbe88c2ea	-0.26711208
97	0xbd7d7710	-0.061881125
98	0xbdf68d60	-0.12038684
99	0xbe108b69	-0.14115681
100	0xbde33e88	-0.11095911
101	0x3e5ac417	0.21363865
102	0xbd532f04	-0.05155851
103	0xbdb92d13	-0.090418
104	0x3e5895ca	0.2115089
105	0x3e7e6395	0.24842675
106	0x3e2501bd	0.16113944
107	0x3e88e798	0.26739192
108	0xbdb9dfbe	-0.090758786
109	0x3dd69f30	0.10479581
110	0x3d8e0060	0.06933665
111	0x3d04ddcd	0.03243809
112	0x3d3e5b2d	0.04647367
113	0x3eaeeb4b	0.3416389
114	0x3e364d7c	0.17802995
115	0x3e89ea01	0.26936343
116	0x3e824a0a	0.25447112
117	0x3d6e3cb6	0.058163367
118	0xbde51620	-0.11185861
119	0xbe122eef	-0.14275716
120	0x3f10fe2c	0.56637836
121	0xbf720ca9	-0.9455057
122	0xbda39313	-0.079870366
123	0xbe1e4d8d	-0.15459271
124	0x3e1d2c89	0.1534902
125	0xbd26d290	-0.04072815
126	0x3faa32d9	1.3296767
127	0x3dfb4140	0.12268305
128	0x3d01453b	0.031560164
129	0xbe56cc24	-0.20976311
130	0x3981f759	0.00024789086
131	0x3d9b6c64	0.07589033
132	0xbddb4058	-0.10705632
133	0xbe5e17aa	-0.21688715
134	0xbe925116	-0.2857749
135	0x3d77323c	0.06035064
136	0xbdf4e47e	-0.11957644
137	0x3e23da07	0.1600114
138	0xbd595681	-0.053061012
139	0x3f1f0dda	0.6213051
140	0x3e80597d	0.25068274
141	0x3dfa8c30	0.1223377
142	0x3e10a9cf	0.14127277
143	0x3eaa8989	0.33308056
144	0xbe81f252	-0.25380188
145	0x3d3634cb	0.04448394
146	0xbddbbcb7	-0.10729354
147	0xbd067070	-0.032822073
148	0x3e89ecd3	0.26938495
149	0x3dc4ce9c	0.0960972
150	0xbceffdc7	-0.029295815
151	0x3e654f51	0.22393538
152	0xbead64d5	-0.3386599
153	0xbe0d0d18	-0.13774526
154	0xbec1d03e	-0.3785419
155	0x3dace9c2	0.08443023
156	0x3e15d605	0.14632423
157	0xbe4d0613	-0.20021848
158	0x3d6d46df	0.057928916
159	0x3dd90706	0.10597043
160	0xbe6731a7	-0.22577535
161	0xbcbd9445	-0.02314199
162	0xbe545eaa	-0.20739236
163	0x3e7895c2	0.24275878
164	0xbe45caa4	-0.19315583
165	0x3e102167	0.14075242
166	0xbe4ffbf1	-0.20310952
167	0xbc3a9a11	-0.011389271
168	0x3d0847e7	0.033271696
169	0x3e9671c7	0.2938368
170	0xbe2899df	-0.16464947
171	0x3e0979e5	0.13425405
172	0x3d3e2cfd	0.046429623
173	0x3e2a2c84	0.16618544
174	0x3e638837	0.2221993
175	0xbe0420ce	-0.12903139
176	0x3ca21388	0.019784704
177	0xbe3b2b2c	-0.18278188
178	0xbe95764b	-0.29191813
179	0x3e42fc2a	0.19041505
180	0x3e009f93	0.12560873
181	0xbe0a0a82	-0.13480571
182	0xbe28983c	-0.16464323
183	0xbd91b68d	-0.07114897
184	0x3d15f988	0.036614925
185	0x3e874d54	0.26426184
186	0x3d5eace7	0.05436411
187	0xbe6c0a14	-0.2305072
188	0xbe11e186	-0.14246187
189	0x3df21443	0.11820271
190	0xbdd65463	-0.10465314
191	0xbe19dd2b	-0.15025775
192	0xbd2ac29c	-0.0416895
193	0xbe5b992d	-0.2144515
194	0x3d36ad29	0.044598732
195	0x3e3ba3a7	0.18324147
196	0xbe02894a	-0.12747684
197	0x3e1314a1	0.14363338
198	0x3ec5257c	0.3850516
199	0x3e721e9f	0.23644494
200	0x3e41fe13	0.18944578
201	0xbe44f925	-0.19235666
202	0x3d34a5dd	0.044103492
203	0x3de7e1d1	0.11322368
204	0x3f27aa41	0.6549416
205	0xbe010247	-0.12598525
206	0x3d995551	0.07486976
207	0xbd85c4a3	-0.06531646
208	0xbe85ebe7	-0.26156542
209	0xbe4c8f38	-0.19976509
210	0xbcc5d852	-0.024151001
211	0xbdcf4385	-0.101203
212	0xbe3402f3	-0.1757925
213	0xbe266842	-0.16250709
214	0x3e3d1586	0.18465242
215	0xbe4ad3e4	-0.19807392
216	0xbe6ffae0	-0.23435545
217	0x3e517987	0.20456515
218	0x3e86cfd3	0.26330432
219	0xbe3c03e0	-0.18360853
220	0x3e66a88b	0.22525232
221	0x3e9e3f88	0.30907845
222	0x3e9057c3	0.28191957
223	0x3e19cf27	0.15020429
224	0xbe795cc1	-0.24351789
225	0xbe5432be	-0.20722482
226	0x3e09fe10	0.13475823
227	0x3dc938b0	0.098252654
228	0xbe8af2e6	-0.27138442
229	0xbe62ba6a	-0.22141424
230	0xbd647495	-0.055775244
231	0xbd4334b9	-0.047657702
232	0x3d1d9947	0.038476255
233	0xbe7696a2	-0.240809
234	0x3e506b93	0.20353536
235	0x3d69171e	0.056906812
236	0xbe7538d4	-0.2394746
237	0xbe556573	-0.20839481
238	0xbdb41142	-0.08792354
239	0xbdeee543	-0.11664822
240	0x3e01d3cc	0.1267845
241	0xbe76698a	-0.24063697
242	0xbd9cd797	-0.07658308
243	0xbe79c8d4	-0.24393016
244	0xbd924210	-0.07141507
245	0xbe848546	-0.2588293
246	0x3d6214c5	0.05519559
247	0x3d106965	0.035256762
248	0xbe748368	-0.23878253
249	0x3ad66443	0.0016356785
250	0xbe8234af	-0.2543082
251	0xbd755208	-0.059892684
252	0xbe02dcd2	-0.12779549
253	0x3dc98581	0.09839917
254	0x3df4d5db	0.11954852
255	0xbe3fdb8a	-0.18736091

fc1.bias f4 [64]
0	0xbe4b1253	-0.19831209
1	0xbcd080dd	-0.025452072
2	0xbeeb7ed7	-0.4599521
3	0xbe321592	-0.17391041
4	0x3cf51059	0.029915022
5	0xbd28b1d2	-0.041185208
6	0x3e14cf11	0.14532115
7	0xbd8e7977	-0.06956761
8	0xbed11023	-0.40832624
9	0x3cee5f0c	0.029098056
10	0x3e6d1d6f	0.2315576
11	0xbe8f8cc1	-0.28037074
12	0xbe4cdbfc	-0.20005792
13	0xbd1fe621	-0.039037827
14	0x3d9c1df2	0.07622899
15	0xbe9cc8b3	-0.3062187
16	0xbe2df104	-0.16986471
17	0xbdd47831	-0.10374487
18	0x3b3db16d	0.0028944865
19	0xbe197b12	-0.14988354
20	0xbe792d9e	-0.24333808
21	0xbe549841	-0.20761205
22	0xbdf7ed46	-0.12105803
23	0x3e592411	0.21205164
24	0x3e20c3d5	0.15699704
25	0x3d27b2b9	0.040941928
26	0xbdbe0b48	-0.092794955
27	0x3cd24862	0.02566928
28	0xbd9fcb1e	-0.078024134
29	0x3e83b5c6	0.2572462
30	0x3e1e9bd7	0.15489136
31	0xbdef6d4b	-0.11690768
32	0x3e48186b	0.19540565
33	0x3e67b06f	0.22625898
34	0x3eb909b4	0.36140215
35	0x3efa30d4	0.48865378
36	0xbe955a54	-0.29170477
37	0x3c717cc8	0.014739223
38	0x3f0dca3e	0.5538672
39	0x3d14a7e8	0.03629294
40	0xbe4f0cc4	-0.20219713
41	0x3e9b783b	0.30365166
42	0xbe4be0a0	-0.19909906
43	0xbc41f291	-0.0118376175
44	0xbd2001b1	-0.039064113
45	0x3e07cdf6	0.13262162
46	0x3ec4dfde	0.38452047
47	0x3ddc4a1e	0.10756324
48	0xbe5f540c	-0.21809405
49	0x3ea2158e	0.3165707
50	0xbe76e3c2	-0.2411032
51	0xbe6b854f	-0.23000072
52	0xbe123c20	-0.14280748
53	0xbceb3dbf	-0.028715966
54	0xbe339bf8	-0.17539966
55	0x3e0305f8	0.12795246
56	0x3e87dd8f	0.26536223
57	0xbd53cbc5	-0.051708
58	0x3e22251f	0.15834473
59	0x3e7ec623	0.2488027
60	0xbbe99128	-0.0071278997
61	0x3d8efb19	0.06981487
62	0xbdf4a825	-0.119461335
63	0xbb930310	-0.004486449

fc2.weight f4 [32, 64]
0	0xbdabe3fe	-0.083930954
1	0xbe004627	-0.12526761
2	0x3c88d928	0.01670511
3	0xbc974b2d	-0.018468464
4	0x3d5633d7	0.052295532
5	0xbceb272e	-0.028705206
6	0x3d63e278	0.0556359
7	0x3d21c290	0.03949219
8	0xbcf09e1a	-0.029372264
9	0xbd5d00c8	-0.053955823
10	0x3d80c005	0.06286625
11	0xbc8a4d4b	-0.01688256
12	0x3d9eda45	0.07756475
13	0xbda9e9b5	-0.08296529
14	0x3decaf76	0.11556904
15	0xbc467e9c	-0.012115147
16	0x3dbbe67a	0.09174819
17	0x3df0b0a3	0.11752441
18	0xbda7eba7	-0.08199244
19	0x3ddfadf8	0.10921854
20	0xbd93da96	-0.07219426
21	0x3d337ed0	0.04382211
22	0x3e02b22d	0.12763281
23	0xbbc0c531	-0.005882882
24	0x3d43085d	0.047615398
25	0xbdb2c3ab	-0.08728727
26	0x3dd4c759	0.10389585
27	0xbd002181	-0.03128195
28	0x3ca9fef0	0.020751446
29	0x3e26e995	0.16300042
30	0x3d1f4d17	0.038891878
31	0xbd0b5fcd	-0.03402691
32	0x3e0a86e1	0.13528015
33	0x3e276409	0.16346754
34	0x3d47ae11	0.048749987
35	0x3da484bc	0.080331296
36	0x3d9b5e0c	0.075862974
37	0x3b04f122	0.0020285328
38	0xbca255f5	-0.019816378
39	0xbe1eb956	-0.15500388
40	0xbd774804	-0.060371414
41	0x3b8a6124	0.004223006
42	0xbdc73f31	-0.0972885
43	0xbdc31b7c	-0.095267266
44	0x3e288ada	0.16459218
45	0xbd138d67	-0.036023524
46	0x3df1bbad	0.118033744
47	0xbaf6bc04	-0.0018824344
48	0xbc39435e	-0.0113075655
49	0x3d802cbf	0.06258535
50	0x3bf5fef9	0.0075072017
51	0x3d02b86f	0.03191417
52	0x3d1778da	0.036980487
53	0x3d50c73d	0.05097126
54	0xbd40c4c2	-0.047062643
55	0xbd96ac5f	-0.07357096
56	0x3e0589ad	0.130408
57	0x3db1bd18	0.08678645
58	0x3e0e83df	0.13917492
59	0x3de60cb0	0.11232889
60	0x3b361263	0.0027781955
61	0x3dc0bac4	0.09410623
62	0xbb4eae4f	-0.0031537001
63	0x3d8c1c38	0.0684132
64	0xbd747000	-0.059677124
65	0x3d837ab0	0.06419885
66	0x3df69035	0.12039224
67	0x3dcd75d9	0.10032243
68	0xbd9259aa	-0.07146008
69	0xbdca9edc	-0.09893581
70	0x3d3e67e3	0.046485793
71	0xbceffb70	-0.0292947
72	0x3d220cae	0.039562874
73	0xbddc863e	-0.10767792
74	0xbd9e4eca	-0.077298716
75	0xbd4036a1	-0.0469271
76	0x3dae037c	0.08496758
77	0xbdf4f7cc	-0.11961326
78	0xbd616d90	-0.055036128
79	0xbda4a3ae	-0.08039032
80	0xb94d1800	-0.00019559264
81	0xbd607468	-0.054798514
82	0x3d30f6c8	0.0432041
83	0xbde45c36	-0.111504
84	0x3dfb6ac4	0.12276223
85	0x3d41181c	0.047142133
86	0xbcc89b66	-0.024488162
87	0xbcb44a3d	-0.022008056
88	0x3d800104	0.06250194
89	0x3ded6c62	0.11592938
90	0x3df408f2	0.11915769
91	0xbd779854	-0.060448006
92	0xbd529c98	-0.05141887
93	0xbd0da568	-0.03458157
94	0xbd898512	-0.06714834
95	0xbdcf764e	-0.10129987
96	0xbc0a6779	-0.008447521
97	0xbd282662	-0.04105223
98	0x3c4301ae	0.011902256
99	0xbd72b811	-0.05925757
100	0x3b1f4ec0	0.0024308413
101	0x3cb65d43	0.022261268
102	0xbd204a90	-0.03913361
103	0xbde7304e	-0.1128851
104	0xbd9d8540	-0.07691431
105	0x3d806df4	0.06270972
106	0xbd717019	-0.058944795
107	0xbde05938	-0.10954517
108	0xbdde6554	-0.108591706
109	0xbd568708	-0.05237487
110	0x3d64d4a6	0.05586686
111	0x3d0fecb5	0.03513785
112	0x3d97a796	0.07405011
113	0x3d3dbc93	0.046322417
114	0xbcdec598	-0.02719383
115	0xbddc423e	-0.10754822
116	0x3d652bb0	0.055949867
117	0xbce33b8e	-0.027738359
118	0xbdedfee0	-0.11620879
119	0x3cb53610	0.022120506
120	0xbd956de2	-0.07296349
121	0xbce4fea0	-0.027953446
122	0x3d37a3b2	0.044833846
123	0x3d34ee61	0.04417265
124	0xbd830f30	-0.06399381
125	0xbd914097	-0.07092398
126	0xbdd058eb	-0.1017321
127	0x3cfea744	0.031085618
128	0xbde6ccf6	-0.11269562
129	0x3c091e6f	0.008369072
130	0xbdd38989	-0.10328967
131	0xbd91d53d	-0.0712075
132	0xbe0fdc37	-0.14048849
133	0x3c3c38f1	0.011488185
134	0x3e1c92a5	0.15290315
135	0xbc87a0ae	-0.01655611
136	0xbd22b691	-0.03972489
137	0xba8dd10c	-0.0010819747
138	0xbd0f4c6b	-0.034984987
139	0x3d1a6718	0.037695974
140	0x3ca2cddf	0.019873558
141	0x3d274cdb	0.04084478
142	0x3d6b3f78	0.057433575
143	0xbe08d528	-0.13362563
144	0xbc46ce74	-0.012134183
145	0xbd4e9472	-0.050434537
146	0xbd01cb61	-0.031688098
147	0xbd80f5ce	-0.062968835
148	0xbd6b9096	-0.057510935
149	0x3df2ae34	0.11849633
150	0xbd1f092d	-0.03882711
151	0xbdcbc3ba	-0.09949441
152	0x3dfcdac7	0.12346416
153	0x3cef35de	0.02920049
154	0xbd35e6da	-0.04440961
155	0x3d9dfdee	0.07714449
156	0xbcba8aa9	-0.022771196
157	0x3c13d8b5	0.009023835
158	0x3e0ea60b	0.13930528
159	0x3b3d0481	0.0028841796
160	0x3d9d3553	0.076761864
161	0xbdfca24c	-0.12335643
162	0xbc5736a4	-0.013135586
163	0x3e2190d9	0.15777911
164	0x3c560d6d	0.013064724
165	0xbd3dade4	-0.046308413
166	0x3bc02284	0.0058634896
167	0x3ddba0d6	0.107240364
168	0x3d25bcdc	0.040463313
169	0xbd4d58fb	-0.050133687
170	0xbd7b7210	-0.061388075
171	0x3dd5bf8b	0.104369245
172	0xbced06c5	-0.028933892
173	0xbd420bd2	-0.047374554
174	0xbdd636a0	-0.10459638
175	0xbd9c7ec6	-0.076413676
176	0x3df0dace	0.11760484
177	0xbcec6034	-0.028854467
178	0xbd7dcdf4	-0.06196399
179	0xbd7805fa	-0.060552575
180	0xbc0ffa54	-0.00878771
181	0xbd94c3d1	-0.072639115
182	0xbda0395a	-0.07823439
183	0xbcfea649	-0.03108515
184	0x3d81e460	0.06342387
185	0xbdb30859	-0.087418266
186	0xbdf81f05	-0.121152915
187	0xbd424904	-0.047432914
188	0xbd360707	-0.044440296
189	0x3bbcd448	0.0057626106
190	0xbd03154f	-0.032002743
191	0xbc837fb3	-0.016052103
192	0xbd8a01b4	-0.06738606
193	0x3de34edd	0.11099026
194	0xbd9b8c12	-0.07595076
195	0x3d97b5a5	0.07407693
196	0xbd7a1447	-0.061054494
197	0x3bac39e0	0.0052559227
198	0x3d4299cc	0.047509953
199	0xbd9ef432	-0.0776142
200	0xbd8c7dc1	-0.06859923
201	0xbdce3136	-0.1006798
202	0x3c452c20	0.012034446
203	0xbdc39651	-0.09550155
204	0xbdc14be2	-0.094383016
205	0xbd8954df	-0.06705641
206	0xbd2d6e2d	-0.0423414
207	0xbdd6cc7d	-0.10488222
208	0x3d9db49a	0.07700463
209	0xbca414ca	-0.020029444
210	0x3dd3dac5	0.10344461
211	0x3dcb9036	0.099396154
212	0x3dc3abcf	0.09554254
213	0xbdd6a3ec	-0.10480484
214	0xbd00b2b9	-0.031420443
215	0xbd04f758	-0.032462448
216	0x3d3d6913	0.046242785
217	0x3b118b19	0.0022208153
218	0xbd964f75	-0.07339374
219	0xbdc60c90	-0.09670365
220	0xbded6f1e	-0.115934595
221	0x3dbfedaa	0.09371503
222	0xbd18852f	-0.03723639
223	0x3dd0274e	0.10163747
224	0xbbcba798	-0.006215047
225	0x3d67ed57	0.05662283
226	0xbd555d39	-0.052090857
227	0xbd0b6708	-0.034033805
228	0x3d933fdb	0.07189914
229	0xbdf995c2	-0.12186767
230	0xbdf898b5	-0.121385016
231	0x3d97937c	0.07401177
232	0xbda22ebe	-0.079190716
233	0xbd7a8297	-0.061159696
234	0x3dbbabab	0.091636024
235	0x3d312225	0.043245453
236	0xbd21e159	-0.03952155
237	0x3d5d7f5c	0.054076537
238	0x3b003cc7	0.0019567476
239	0xbcc9ab80	-0.02461791
240	0x3d267554	0.040639237
241	0x3cd4ac89	0.025961177
242	0xbab9bc80	-0.0014170557
243	0x3dcf4d94	0.10122219
244	0xbd0c97a8	-0.03432432
245	0x3d8a867e	0.067639336
246	0x3ca90238	0.02063094
247	0x3c97a450	0.018510967
248	0xbda21a9b	-0.07915231
249	0x3d464ec0	0.048414946
250	0x3de17c4f	0.11010038
251	0xbd730a5e	-0.05933606
252	0x3da6912a	0.081331566
253	0x3d9ee631	0.07758749
254	0xbdfb2471	-0.1226281
255	0xbdbaa2be	-0.09113072

fc2.bias f4 [32]
0	0x3cb25e15	0.021773377
1	0xbdb2ca84	-0.08730033
2	0x3da99295	0.082799114
3	0xbbec8c2f	-0.0072188596
4	0xbd82bf97	-0.06384199
5	0x3e2ff557	0.17183433
6	0x3d4abf0a	0.049498595
7	0xbd57640d	-0.05258565
8	0x3de5067b	0.11182877
9	0x3d5aad83	0.05338813
10	0xbb4be4d0	-0.0031111725
11	0x3d437eae	0.047728233
12	0xbd766782	-0.060157306
13	0x3d3fabe8	0.046794802
14	0x3d128f70	0.035781324
15	0x3e1d37f4	0.15353376
16	0x3d195f82	0.0374446
17	0xbcf92817	-0.030414624
18	0x3d11b992	0.035577364
19	0xbc884b3d	-0.016637439
20	0x3dd12a09	0.10213096
21	0xbda62386	-0.08112244
22	0x3e1bc367	0.15211259
23	0x3d7a51a5	0.06111302
24	0xbd8c0d91	-0.06838525
25	0xbd47c2c6	-0.048769735
26	0xbd14f4b0	-0.036366165
27	0x3d972e79	0.07381911
28	0xbd3047bc	-0.04303716
29	0x3dbeb010	0.09310925
30	0x3dc3c983	0.0955992
31	0x3da4daf2	0.08049573

fc3.weight f4 [16, 32]
0	0x3a9103e9	0.0011063787
1	0xbdea6966	-0.114458844
2	0x3cf71f12	0.030166183
3	0x3d91de0c	0.0712243
4	0xbda6b77a	-0.08140464
5	0x3e8040a9	0.25049332
6	0xbdb43bf1	-0.088004954
7	0xbd86c537	-0.065805845
8	0x3e3bd01d	0.18341108
9	0x3e352166	0.17688522
10	0xbdf52053	-0.11969056
11	0xbe06c566	-0.13161239
12	0x3ec002ea	0.37502223
13	0xbe078587	-0.1323453
14	0x3df83f42	0.121214405
15	0x3f004718	0.5010848
16	0xbd0ef60f	-0.03490263
17	0x3d04818d	0.03235011
18	0xbe031eb9	-0.12804689
19	0xbda0a158	-0.07843274
20	0xbe8d2dd3	-0.27574024
21	0xbd9bda74	-0.07610026
22	0x3e3bcdca	0.18340221
23	0x3cb35e67	0.0218956
24	0xbdb2a83e	-0.08723496
25	0x3df80e26	0.121120736
26	0x3e39efc5	0.18157871
27	0xbeb4e051	-0.3532739
28	0xbdafe9d8	-0.08589524
29	0x3e9c2c62	0.3050261
30	0x3d10160c	0.035177276
31	0xbd5ae46d	-0.0534405
32	0x3af42c22	0.0018628875
33	0xbc70c530	-0.014695451
34	0xbe486a36	-0.19571766
35	0xbd5a306c	-0.053268835
36	0xbca788fd	-0.020451063
37	0x3e497806	0.19674692
38	0xbd2072dd	-0.039172042
39	0xbe53f404	-0.20698553
40	0xbc879acb	-0.016553303
41	0x3e54a74f	0.20766948
42	0xbe484c44	-0.19560343
43	0x3d3ce28c	0.04611449
44	0x3e8c95a7	0.27457926
45	0x3e1ad177	0.15118967
46	0x3e063a27	0.13108121
47	0x3ec9c3b6	0.39407128
48	0xbdd934e9	-0.10605795
49	0x3e1b6a63	0.15177302
50	0xbca6a905	-0.020344267
51	0x3cef8475	0.029237965
52	0xbda28f94	-0.079375416
53	0xbe7a6d10	-0.24455667
54	0x3e7bb66c	0.24581307
55	0x3e128f6d	0.14312525
56	0x3de630b1	0.11239756
57	0xbe383e4d	-0.17992516
58	0x3e423bb8	0.18968093
59	0xbe8f4384	-0.27981198
60	0xbe2a20e8	-0.16614115
61	0x3e8ac1f3	0.27101097
62	0xbd26f0eb	-0.0407571
63	0x3e266eaa	0.16253152
64	0xbe27cba8	-0.16386282
65	0xbced5da8	-0.028975323
66	0x3e18897b	0.14896195
67	0x3df181b2	0.117923155
68	0xbde5536e	-0.111975536
69	0xbac999e6	-0.0015380948
70	0xb8c14755	-9.216244e-05
71	0x3d7ee29d	0.062227834
72	0x3d881016	0.06643693
73	0xbd0d8f27	-0.03456035
74	0x3db8749d	0.09006617
75	0x3da185f2	0.07886876
76	0x3d1a92a6	0.03773751
77	0x3e1fc519	0.1560253
78	0x3e0402e3	0.12891726
79	0xbdfd2579	-0.12360663
80	0xbd982fad	-0.074309684
81	0xbe31a1cb	-0.17346875
82	0x3d24d30b	0.04024033
83	0xbd86d94e	-0.06584416
84	0xbe2b6ade	-0.16739985
85	0xbd10731a	-0.03526602
86	0xbdad70c1	-0.08468772
87	0x3e2f9d46	0.17149839
88	0x3d16a2f2	0.03677649
89	0x3de6bc12	0.1126634
90	0x3c823730	0.015895456
91	0x3b808c06	0.003922942
92	0xbd72a496	-0.059238993
93	0x3ce7ecab	0.028311094
94	0xbd678fc6	-0.056533597
95	0xbe1bb8db	-0.15207236
96	0x3d216664	0.039404288
97	0x3cf4f6e0	0.029902875
98	0x3d1501e0	0.03637874
99	0xbc803bb0	-0.015653461
100	0x3a916280	0.0011091977
101	0x3e22b903	0.15890889
102	0xbc362120	-0.011116296
103	0xbc0588af	-0.008150264
104	0xbcbf6f20	-0.023368418
105	0xbdf6d3e8	-0.12052137
106	0x3e0c50ef	0.13702749
107	0xbd11e234	-0.035616115
108	0x3d81293c	0.06306693
109	0x3df671ee	0.12033449
110	0xbb751f13	-0.0037402555
111	0x3d042e5b	0.03227077
112	0x3dcdaebe	0.10043095
113	0x3df2e47a	0.11859985
114	0xbe235a13	-0.1595233
115	0x3e1e8f59	0.1548437
116	0xbe0bed78	-0.13664806
117	0x3d731d91	0.05935437
118	0x3dc616a6	0.096722886
119	0x3cd06773	0.025439953
120	0xbdc71f05	-0.097227134
121	0xbdd7667c	-0.10517594
122	0x3e09e80d	0.13467427
123	0xbd7aedcc	-0.061261937
124	0xbd326600	-0.043554306
125	0xbccbd446	-0.024881493
126	0x3daad246	0.08340888
127	0xbe27fb77	-0.1640452
128	0x3e3628a5	0.17788942
129	0xbda167d3	-0.07881131
130	0x3d9cc928	0.07655555
131	0xbda7d491	-0.08194841
132	0x3e2718c3	0.1631804
133	0xbddb46c4	-0.10706857
134	0xbd8f62ca	-0.070012644
135	0xbdcccf3d	-0.10000465
136	0xbe406e41	-0.18792059
137	0x3da4ed42	0.08053066
138	0xbda7e8be	-0.08198689
139	0x3d7a82bd	0.061159838
140	0xbd47afc7	-0.04875162
141	0x3d4f517e	0.050614826
142	0xbd24ec90	-0.040264666
143	0x3e1f0985	0.15530975
144	0xbd0541ad	-0.032533336
145	0x3d86bd35	0.06579057
146	0x3d64bf11	0.055846278
147	0x3e163a71	0.14670731
148	0x3e0ca54f	0.13734935
149	0x3d2c9c03	0.042140972
150	0xbce88b40	-0.028386712
151	0xbdfdb5c7	-0.12388187
152	0xbdf48a11	-0.119403966
153	0xbd351929	-0.044213448
154	0x3d9e9a3b	0.07744261
155	0xbd5f338b	-0.054492515
156	0xbc3ed15e	-0.011646597
157	0xbd8e010d	-0.06933794
158	0x3e18911b	0.14899103
159	0xbddbebb4	-0.10738316
160	0xbe3512cc	-0.17682952
161	0xbdcd0d7e	-0.10012339
162	0x3e2493b8	0.16071975
163	0x3e1b0ef2	0.1514242
164	0xbdab8dc4	-0.08376649
165	0xbe07a1fa	-0.13245383
166	0x3e18c537	0.14918981
167	0x3e2acbb5	0.1667927
168	0x3e0ace9d	0.13555379
169	0xbe6e661f	-0.23281144
170	0x3d530f66	0.051528357
171	0x3e324ffd	0.17413326
172	0x3d3a33e3	0.04545964
173	0xbc3f011f	-0.011657982
174	0xbe4298c9	-0.19003595
175	0xbeae4f76	-0.34045
176	0x3e6124f9	0.2198676
177	0x3d8cf2f7	0.06882279
178	0x3d9ed057	0.077545814
179	0x3d7764b2	0.060398765
180	0x3eb39e0b	0.35081515
181	0x3e0081c3	0.125495
182	0xbe86c62e	-0.26323074
183	0x3d028064	0.031860724
184	0x3decdee3	0.1156595
185	0xbd4276e7	-0.047476675
186	0xbd9d7eb7	-0.076901846
187	0x3efe7228	0.4969647
188	0xbcf8ed0b	-0.030386468
189	0xbe0e47a1	-0.13894512
190	0x3e645eb9	0.22301759
191	0x3d902790	0.07038796
192	0x3d33539c	0.043780908
193	0xbd13d14e	-0.03608828
194	0xbe07f147	-0.13275634
195	0xbc22734c	-0.009915184
196	0x3da0c74d	0.078505136
197	0xbc973534	-0.018457986
198	0x3d99ae27	0.0750392
199	0x3cc98bf1	0.024602862
200	0x3daa6c03	0.08321383
201	0xbb9b0ffb	-0.0047321296
202	0x3e54c447	0.20777999
203	0xbc910712	-0.017703567
204	0xbcc94f52	-0.024573956
205	0xbc086373	-0.008324492
206	0xbde58970	-0.11207855
207	0xbdc2f3e2	-0.09519173
208	0xbb252aca	-0.0025202506
209	0xbdba6561	-0.09101368
210	0x3d6c844f	0.057743367
211	0x3dfe50fa	0.12417789
212	0xbdb209fd	-0.08693311
213	0x3dc18343	0.09448864
214	0x3d49e222	0.049287923
215	0xbdb8c447	-0.09021812
216	0x3e0d20d5	0.13782056
217	0xbe08cbe3	-0.13359027
218	0xbdefcd13	-0.11709037
219	0xbcc60fa9	-0.02417739
220	0x3d06b2a0	0.032885194
221	0x3df87ff7	0.12133782
222	0x3e378230	0.17920756
223	0x3c9d794b	0.019222876
224	0x3d27ce5f	0.040968295
225	0xbdfcd9e7	-0.12346249
226	0xbe3a2866	-0.18179473
227	0x3d935585	0.07194046
228	0x3ddea58b	0.108714186
229	0xbd9b9b0c	-0.07597932
230	0xbd585c12	-0.05282218
231	0xbdba70bf	-0.09103536
232	0x3e0ee392	0.13953999
233	0x3d9c0aaa	0.076192215
234	0xbe5e5316	-0.21711382
235	0x3c4eda4f	0.012625291
236	0x3df25b93	0.11833873
237	0x3c99bef5	0.018767813
238	0xbd992cf7	-0.074792795
239	0xbd3e269d	-0.046423543
240	0x3e0e2ead	0.13884993
241	0xbe190027	-0.14941464
242	0xbe0ea554	-0.13930255
243	0x3da1771f	0.07884049
244	0xbdcc1743	-0.09965374
245	0x3e08e84c	0.13369864
246	0xbe273998	-0.16330564
247	0x3e0bc157	0.13647972
248	0xbd324989	-0.04352716
249	0xbe0c691a	-0.13711968
250	0x3dd48577	0.10377019
251	0x3b5d3389	0.0033752641
252	0x3c13f192	0.009029763
253	0xbbc9689f	-0.006146505
254	0x3dc95e96	0.09832494
255	0x3c5cb3c3	0.013470593

fc3.bias f4 [16]
0	0x3ea87f4b	0.32909617
1	0x3e90ae1c	0.28257835
2	0xbd58bbf0	-0.052913606
3	0xbe039981	-0.12851526
4	0xbd982d7c	-0.074305505
5	0x3c14f252	0.009090977
6	0x3df7d3d2	0.121009484
7	0x3e155434	0.14582902
8	0x3e79b961	0.24387123
9	0xbbe22b34	-0.006902123
10	0xbe0b0a01	-0.13578035
11	0xbdaec110	-0.085329175
12	0xbdf6b09d	-0.12045405
13	0x3e7ccff8	0.24688709
14	0x3da8b1ad	0.08237014
15	0x3e44bac7	0.19211875

fc4.weight f4 [8, 16]
0	0xbe623ffd	-0.22094722
1	0xbe8c7b90	-0.2743802
2	0x3e40b03c	0.18817228
3	0x3e025f7c	0.12731737
4	0xbd6eef9c	-0.058333978
5	0x3f2f965a	0.68588793
6	0x3e72dd07	0.23717128
7	0xbe2639be	-0.16232964
8	0xbd8dd265	-0.06924895
9	0xbe56c9f6	-0.2097548
10	0xbce0cfea	-0.027442891
11	0x3cceb36b	0.025232038
12	0xbdb9bd8d	-0.09069357
13	0x3f106199	0.5639892
14	0xbc9cb504	-0.019129284
15	0xbe685b45	-0.22691067
16	0xbc746ed4	-0.014919002
17	0x3dd60363	0.10449865
18	0xbd9b3e24	-0.07580212
19	0x3bff20ab	0.0077858767
20	0x3e2ec2a2	0.17066434
21	0x3ddf540c	0.109047025
22	0x3e009f27	0.12560712
23	0x391aaf8b	0.0001475198
24	0xbe0195e1	-0.1265483
25	0xbd4e3851	-0.050346676
26	0x3d832464	0.06403425
27	0x3e312916	0.1730083
28	0x3e2ce79e	0.1688523
29	0xbe565522	-0.20930913
30	0xbdaa05a8	-0.0830186
31	0x3d9f26be	0.07771061
32	0x3e354ae7	0.17704354
33	0xbacd71ec	-0.001567421
34	0x3de0edca	0.10982855
35	0x3e4c186f	0.19931196
36	0x3c03106c	0.007999521
37	0xbdd2afcd	-0.102874376
38	0xbd907152	-0.07052864
39	0x3e137b11	0.14402415
40	0x3ce4cc2d	0.02792939
41	0xbd2efbd0	-0.042720616
42	0x3e459f36	0.19299015
43	0x3dbbed01	0.09176064
44	0x3d03be62	0.032163985
45	0xbdd3346a	-0.103127316
46	0x3dd94dc8	0.10610539
47	0xbe079169	-0.13239063
48	0x3eba4a61	0.36384872
49	0x3e8b53cd	0.27212372
50	0xbda3cc56	-0.07997958
51	0xbdb9b1fb	-0.0906715
52	0xbe37acab	-0.17936961
53	0xbe6de9cb	-0.23233716
54	0xbcc90372	-0.024537776
55	0x3d3abd6a	0.045590796
56	0xbe3bdfb8	-0.1834706
57	0xbce61581	-0.028086426
58	0x3c27220e	0.01020099
59	0xbe3144cd	-0.17311402
60	0xbe557705	-0.20846184
61	0x3df329ec	0.1187323
62	0xbcc32688	-0.023822084
63	0x3b304c3a	0.0026900903
64	0xbe7fdcbe	-0.2498655
65	0xbea9ef3f	-0.33190343
66	0xbdc6a107	-0.09698682
67	0x3d8915dc	0.066936225
68	0xbe4bcead	-0.1990306
69	0x3dd72cf9	0.10506625
70	0xbe5e9d37	-0.2173966
71	0xbe24a4b4	-0.16078454
72	0xbe8c4640	-0.27397346
73	0x3b722e7f	0.0036953983
74	0xbd868ef1	-0.06570233
75	0xbdbc0914	-0.09181419
76	0x3e10f3a4	0.14155442
77	0x3d374edb	0.044752937
78	0xbdd40e32	-0.1035427
79	0xbe6bdf30	-0.23034358
80	0x3f0c57d4	0.54821515
81	0x3ec48fca	0.38390952
82	0xbdd46478	-0.103707254
83	0x3d28bbfa	0.041194893
84	0x3e4989d7	0.19681488
85	0xbea9bf7c	-0.33153903
86	0x3dcde49e	0.10053371
87	0xbd82a5ba	-0.06379266
88	0x3ed40972	0.41413456
89	0xbd6ef71e	-0.058341138
90	0x3df5afcc	0.11996421
91	0x3e86dcd5	0.26340356
92	0xbe0ed563	-0.13948588
93	0xbcfe13fe	-0.031015392
94	0x3ee00920	0.43756962
95	0x3eb2ace5	0.34897533
96	0x3d8a5e21	0.06756235
97	0xbd8b6b12	-0.068075314
98	0xbe757f7b	-0.23974411
99	0x3b44e300	0.003004253
100	0xbe65df7d	-0.22448535
101	0x3e5b0bb1	0.21391179
102	0xbce67a3a	-0.028134454
103	0xbd78fec5	-0.060789842
104	0xbe773e4d	-0.2414486
105	0x3e1a640f	0.15077232
106	0xbe032387	-0.12806521
107	0x3e5fff2e	0.21874687
108	0x3d06e1cd	0.032930184
109	0x3e89eb66	0.26937407
110	0x3d41433e	0.047183268
111	0xbe0f3f7e	-0.13989064
112	0x3d68edf0	0.05686754
113	0x3e7f96b1	0.24959828
114	0x3d4734f1	0.048634473
115	0x3e6a4496	0.22877726
116	0xbe12e5ea	-0.14345518
117	0x3d749958	0.059716552
118	0x3d9af91f	0.07567047
119	0xbc8c90a1	-0.017158808
120	0x3e5893b5	0.21150096
121	0x3dbc43d9	0.091926284
122	0x3e02dd61	0.12779762
123	0xbdf4edce	-0.1195942
124	0x3e622264	0.22083431
125	0xba32f924	-0.0006827286
126	0x3e036d3e	0.12834641
127	0x3c99c5ff	0.01877117

fc4.bias f4 [8]
0	0x3f56b0b1	0.8386336
1	0xbd86ca63	-0.06581571
2	0x3e3111b4	0.1729191
3	0x3d43de15	0.047819216
4	0x3eabd58c	0.3356136
5	0x3e196cba	0.14982882
6	0xbd4ba0ed	-0.049714018
7	0xbd876bcd	-0.06612358

fc5.weight f4 [4, 8]
0	0xbe4fe0a5	-0.20300539
1	0xbe4cae78	-0.1998843
2	0x3d5ece72	0.0543961
3	0x3e2c24d9	0.16810931
4	0xbddd8fd8	-0.10818452
5	0x3f4d90b6	0.80298936
6	0xbe269706	-0.16268548
7	0x3ba01b4a	0.0048860656
8	0x3ea00865	0.31256405
9	0xbd79f138	-0.06102106
10	0xbe60b770	-0.21944976
11	0xbe7f1594	-0.24910575
12	0xbea197ea	-0.31561214
13	0xbdb64581	-0.088999756
14	0xbe96dea7	-0.29466745
15	0x3e86a91d	0.26300898
16	0x3f538eed	0.8263996
17	0xbea3d2ba	-0.3199671
18	0xbe3fd0a2	-0.18731931
19	0xbe58c8f7	-0.21170412
20	0x3f02ac06	0.51043737
21	0xbebdb8c5	-0.3705503
22	0x3e568a35	0.2095116
23	0xbe8c36c4	-0.27385533
24	0xbdf8c9c0	-0.12147856
25	0x3df85ed8	0.12127465
26	0x3e88e889	0.2673991
27	0xbd1d4958	-0.038400024
28	0xbe861df3	-0.26194724
29	0xbe03f327	-0.12885724
30	0x3e80d4d7	0.25162384
31	0x3e8c37fd	0.27386466

fc5.bias f4 [4]
0	0x3f0008a4	0.50013185
1	0xbe18c81b	-0.14920084
2	0x3fa30540	1.2735977
3	0xbe485505	-0.19563682

fc6.weight f4 [2, 4]
0	0x3f434899	0.7628265
1	0xbefa9e57	-0.4894893
2	0xbf60b26c	-0.8777225
3	0xbe6e0bd0	-0.23246694
4	0xbebea67b	-0.3723639
5	0xbeb18d6e	-0.34678215
6	0x3f2b8141	0.669941
7	0xbed0186c	-0.40643632

fc6.bias f4 [2]
0	0xbce370c4	-0.027763732
1	0x3d14f7eb	0.036369245
