week3/exercise5/mnist_robust.pt (torch, 35151 bytes, 8 tensors)

fc1.weight f4 [10, 784]
00000000: 74a9 3e37 72d8 aa37 9c60 b737 deaa 0437
00000010: 42b3 c537 5f65 9335 9222 8e37 4386 7c37
00000020: f748 bf37 c90a 1a36 a6bf d937 cd16 7437
00000030: e0b9 d137 761c 83b5 731d 8d37 d9ed b636
00000040: 020c f637 5da5 c337 0b6d fc37 42bf 8d37
00000050: a661 f537 c3cb 0538 8dfc 1c38 6ae0 8137
00000060: be77 7237 bad4 6f37 b30d ed37 3571 e837
00000070: f9c6 5537 1c6e a937 a1d1 e237 ee93 1738
00000080: d997 de37 2c22 d737 aedf 0638 faff bd37
00000090: f6cd cfb5 d836 f537 7bb0 9837 0a5e 3638
000000a0: 4be6 2439 cc1d 9d38 ac34 3fb6 9dd2 8937
000000b0: c6af 9937 6c1d 0938 48d4 d037 dead b337
000000c0: 9657 ce37 8030 e336 0738 f537 e7ee ad37
000000d0: 0e5d 7437 9fc3 9937 9444 7837 e50f 0338
000000e0: 7cfd ce37 3771 8637 9b75 c337 2a00 9e37
000000f0: 6577 c737 cbe6 8037 b1ac 9b37 54ec cb38
00000100: 3e7c 5438 4baa b737 680f 733a f5ca 133c
00000110: 0068 e63b d444 a7ba b41b 0eb9 a42a b3b8
00000120: 3555 6b39 62c6 24b8 4ec9 64b9 c1bc 6139
00000130: 84df 0339 dbd8 7e37 888f 0839 e7fd 4a37
00000140: 66a7 9937 b1f9 d037 47d7 ab37 e9c5 c735
00000150: 3810 3637 2091 7037 580f 4437 fa67 b337
00000160: 7d58 8b37 2c71 2a38 a8c9 9938 fdf7 ec39
00000170: bd81 ec39 f2b8 033a 16bf 283c 7788 ed3c
00000180: 9d48 5e3d 53a3 1c3c 4b80 b33d f451 a93d
00000190: a351 7e3d a817 a03d 844b e13d 3431 da3d
000001a0: a7c4 993c ebed b4ba 8314 813a 1a5c 4c39
000001b0: 260f 6438 c736 c437 c78b a037 8824 9837
000001c0: 8a6f 5537 e88a ab37 73fa a8b7 c58c c335
000001d0: c8ed 0539 559c ee38 5c71 9e3a d4ce f93b
000001e0: c089 c53d a2d5 043e b9f0 103e d921 c93d
000001f0: 75ca 2a3e 6b3b e43d ff32 b43d 35a9 f03d
00000200: 2760 a63d 08e6 413d ccd5 f43d a9bc ab3d
00000210: f534 e03c fab2 2d3d 9473 163c ca75 19bc
00000220: 1057 dcba 3033 a2b8 ba48 a337 770c 9637
00000230: 7221 1b38 2269 00b6 40ed 8d37 710b e237
00000240: 5e81 9639 ad92 3a3c 95fe 903d be3d 833d
00000250: cf8b de3d a2cd e73d 10c4 083e a35b 503e
00000260: 9fea 1e3e 7f3a c03d f5ae 5f3d 89ce 853d
00000270: 3ec3 143e 4e30 c93d 8231 853d 2669 9e3d
00000280: cf77 063d f07e 9b3c d3c6 3d3b 6852 b6bb
00000290: 9bef 12bc d9e1 88b8 794d e137 ceb3 6437
000002a0: 06d0 a037 9109 b537 b534 3036 7421 d0b9
000002b0: 5f1f 2fba 1d02 b33c ac42 683d 52c9 f33c
000002c0: fb4f 023e e290 0b3e 8c2a 1e3e e290 bb3d
000002d0: f6ff 2d3d ca1b ff3d 7107 a13d 2cf0 8b3d
000002e0: e353 ba3d 1f71 943d 0a1a 5f3d a555 903c
000002f0: b61e e23b fe72 fdbb 9646 8cbc 2f97 84bd
00000300: c488 35bd 4e2c 0abc ba93 84b8 2a45 0538
00000310: eeb5 8d36 154b 8db6 0f80 cb37 adb4 2cba
00000320: 3891 7e3c f7ee b73d 8867 1f3d 73eb a03c
00000330: 0f65 e33c c029 9aba 0a56 8fbd c29c adbd
00000340: fd84 1f3d acf4 083e 8275 3e3e 9b7a 263e
00000350: 0dc7 a83d cea3 e83d 9e22 843d 196f 99bc
00000360: 4367 56bc 0575 3bbd be87 14bd 4b92 cbbd
00000370: fe14 b3bd c0a5 21bd 1115 f3b6 f80e a237
00000380: d48e c537 2f66 e837 89ea 88b9 0120 bdba
00000390: f083 d53c 8468 ed3c e9b5 693c 0ef6 29bc
000003a0: 98ec 25bc 8be3 a7bc 65a2 54bd e075 2abd
000003b0: d9fb 20bd 26e8 c83c 519f 573d c86d 243d
000003c0: 2b49 ae3d ee4f 493d 583e 39bc 0920 7bbd
000003d0: cde7 87bd 709c 50bd 6fbd 87bd 013b 28be
000003e0: 4530 2fbe f59a bbbd 622a 7f37 c8cc b737
000003f0: d54b 0f37 f71c c037 4564 86b9 5733 24bb
1.1364336e-05 2.036637e-05 2.1860287e-05 7.907596e-06 2.3567703e-05 1.0981856e-06 1.6943817e-05 1.5051631e-05
2.2802951e-05 2.2954066e-06 2.595766e-05 1.4548842e-05 2.5001296e-05 -9.768544e-07 1.6822223e-05 5.451712e-06
2.9331077e-05 2.3322815e-05 3.0091518e-05 1.6897571e-05 2.9251747e-05 3.189944e-05 3.7428505e-05 1.54825e-05
1.4452204e-05 1.4295039e-05 2.825898e-05 2.7709271e-05 1.2742116e-05 2.0197644e-05 2.7038916e-05 3.6138976e-05
2.6535172e-05 2.564591e-05 3.2156408e-05 2.2649754e-05 -1.5482644e-06 2.9231815e-05 1.8201992e-05 4.3479762e-05
0.0001572605 7.4918935e-05 -2.8491877e-06 1.6429747e-05 1.8320872e-05 3.2690747e-05 2.4894383e-05 2.1419426e-05
2.4597899e-05 6.7707733e-06 2.9232366e-05 2.0734455e-05 1.4565199e-05 1.8330114e-05 1.4797919e-05 3.1247637e-05
2.4675152e-05 1.6026765e-05 2.3300576e-05 1.8835144e-05 2.3778246e-05 1.536626e-05 1.8557856e-05 9.723814e-05
5.066045e-05 2.1894599e-05 0.000927201 0.009020557 0.0070314407 -0.0012761601 -0.00013552496 -8.5433276e-05
0.00022443089 -3.9285405e-05 -0.00021818766 0.00021527988 0.000125764 1.519007e-05 0.0001302344 1.20992545e-05
1.8316972e-05 2.4911804e-05 2.0485035e-05 1.4884255e-06 1.0851822e-05 1.4338904e-05 1.1686083e-05 2.138688e-05
1.6611297e-05 4.0636558e-05 7.33317e-05 0.00045198193 0.0004511009 0.00050248124 0.010299465 0.028995736
0.05426847 0.009560424 0.08764704 0.082675844 0.062089574 0.07817012 0.110007316 0.10653916
0.018770529 -0.0013803815 0.0009848032 0.00019489267 5.4373544e-05 2.3390528e-05 1.9138575e-05 1.8136823e-05
1.2721759e-05 2.0449472e-05 -2.0143785e-05 1.4569601e-06 0.00012772449 0.000113778435 0.0012088227 0.007623533
0.09645414 0.1297212 0.14154328 0.09820909 0.16678794 0.111441456 0.08798789 0.11751024
0.08123808 0.047338516 0.11954841 0.083855934 0.027369002 0.042407013 0.009182829 -0.009366462
-0.0016810615 -7.7342964e-05 1.946498e-05 1.7887198e-05 3.6986028e-05 -1.9134682e-06 1.6918988e-05 2.6946627e-05
0.00028706616 0.011387509 0.07079808 0.06408261 0.1086651 0.11318518 0.13356042 0.20347457
0.15519188 0.09386157 0.05461021 0.06533534 0.14527604 0.098236665 0.065035835 0.07734899
0.032829102 0.018981427 0.002895762 -0.005564023 -0.008968259 -6.527053e-05 2.6858166e-05 1.3631723e-05
1.9170355e-05 2.1581336e-05 2.6256723e-06 -0.00039697776 -0.0006680395 0.021851594 0.05670421 0.029759083
0.12725823 0.13629487 0.15445918 0.091584936 0.04248043 0.12456472 0.078627475 0.068329185
0.09098031 0.07248139 0.054468192 0.017618963 0.0069006337 -0.0077346554 -0.017123502 -0.064741485
-0.044319883 -0.008433415 -6.321767e-05 3.1774085e-05 4.223307e-06 -4.210868e-06 2.4259118e-05 -0.0006588202
0.015537553 0.08981126 0.038917094 0.019643521 0.02775815 -0.001176171 -0.069988325 -0.08477165
0.038945187 0.13374585 0.18599513 0.16257708 0.08241091 0.11359368 0.06451915 -0.018729733
-0.013086143 -0.045765895 -0.036262266 -0.099400125 -0.08744238 -0.039464712 -7.244417e-06 1.9318875e-05
2.355074e-05 2.7704138e-05 -0.00026114684 -0.0014429094 0.02606389 0.028980501 0.014264562 -0.010373605
-0.010127209 -0.020494243 -0.051912684 -0.04161632 -0.03930268 0.02452476 0.05264217 0.040143758
0.085100494 0.049148493 -0.011306368 -0.061309848 -0.06636009 -0.05093044 -0.066279285 -0.16428758
-0.17108257 -0.09160415 1.5209052e-05 2.1910659e-05 8.54112e-06 2.2901671e-05 -0.00025633178 -0.0025055015

fc1.bias f4 [10]
00000000: 8819 13be 0b0c 0f3f d2f9 9a3e 7a53 08be
00000010: bcc0 90be 4f38 453f f3cd a0bd 5d96 0a3f
00000020: 6584 c73d d8af 603f
-0.14365208 0.5587775 0.30268723 -0.13313094 -0.28272045 0.77039045 -0.07851782 0.54135686
0.09742049 0.87768316

fc2.weight f4 [10, 10]
00000000: eba3 c33e fd22 c7be 3774 ac3f bfaa 76bf
00000010: 70db 09bf c126 e13e 8463 92bf dcef 7abe
00000020: 4976 4dbe 1e47 dd3c d294 8cbe f9ef b33e
00000030: c4a0 cb3e 2a98 b8be 9ab2 883e a45b 68bf
00000040: ffab 813e b1c6 9d3e f1bd 9abf 1f05 863d
00000050: afa1 f0be 1bed 643f 71ec 623f 84c8 4a3e
00000060: 20e0 d2be 43a4 c03c d0a0 e03e ffcd b2be
00000070: f9a1 efbe 11fe a2be b943 5b3e 5c8d 093d
00000080: 780f 0e3e 7e25 81be f8e2 5d3e 19ae 323f
00000090: 4dda c6be c478 aa3f 1574 96be 5938 233e
000000a0: 9f55 6a3f 3dc4 943f 65b2 36be b348 853f
000000b0: d450 223e caed 24bd 04b5 53bf bd60 adbe
000000c0: f669 003e 4fe3 c2be 62f7 66be 43ba 9e3d
000000d0: fb21 a03d 0d25 013f 823d e33d 15ee 92be
000000e0: 88c0 a8bd 6a8f f4be a21a f63e aea7 a43f
000000f0: 631a b23f 7861 1c3f 1212 fb3e 9973 8dbe
00000100: 7e2a 53bf 38f6 7f3e 2e3c 8cbe e1d6 c5be
00000110: 0465 dbbc e557 a53e 8077 69bd c949 6cbe
00000120: 7e17 e53d dbcb 0bbd cbe5 163f fecd 283f
00000130: 9b0b 1dbd ca63 04bf eee0 3f3f e370 80be
00000140: 26da 98bc 9481 e7bd 1599 d6be 5387 be3d
00000150: 3dcf 583f 0945 fb3e a982 bb3d ef48 48bf
00000160: dd7a 2cbe 0736 543e 1800 1dbe 5c44 9fbe
00000170: 08f6 77bd 8e3f 7a3e 794f 383b d39d 52be
00000180: fa59 72be f4ce 7d3e d41e 54be 38db 003e
0.38210997 -0.3889388 1.3472966 -0.9635429 -0.5385046 0.4397488 -1.143662 -0.24505562
-0.20064653 0.02701145 -0.2745729 0.35144022 0.39771092 -0.36053592 0.26698762 -0.9076483
0.25326535 0.30815652 -1.2089216 0.065439455 -0.46998355 0.89424294 0.8864203 0.19803053
-0.4118662 0.023515826 0.4387269 -0.34922788 -0.46803263 -0.31834462 0.21412553 0.033582076
0.13873088 -0.25223917 0.21668613 0.697969 -0.38838425 1.3318105 -0.2938544 0.15939464
0.915369 1.1622387 -0.1784149 1.0412811 0.15851146 -0.040265836 -0.8269808 -0.33862868
0.12540421 -0.38064048 -0.22555307 0.0775037 0.07818981 0.5044716 0.11095716 -0.28697267
-0.082398474 -0.47765666 0.48067194 1.2863672 1.3914303 0.61086226 0.49037224 -0.27627257
-0.8248671 0.24996269 -0.27389663 -0.38640502 -0.026781566 0.3229362 -0.05699873 -0.23075022
0.111861214 -0.03412996 0.58944386 0.6593932 -0.038341146 -0.51714766 0.7495259 -0.25086126
-0.018658709 -0.11304012 -0.41913667 0.09303155 0.8469122 0.49076107 0.09155781 -0.7823629
-0.16843744 0.20723735 -0.15332067 -0.31106842 -0.060537368 0.24438307 0.0028123541 -0.20568018
-0.23667136 0.24785978 -0.20714885 0.12583625

fc2.bias f4 [10]
00000000: 5998 053f 4aea 4d3f 69b5 003d 4136 1fbe
00000010: 3baf 5a3e 4041 b2be 2dd3 6dbe 6d44 e03e
00000020: 32e2 1d3d 166a 87bd
0.5218559 0.8043562 0.031423006 -0.1554804 0.21355908 -0.34815407 -0.23225088 0.43802205
0.038545795 -0.06612031

fc3.weight f4 [10, 10]
00000000: 8bad 113e 2646 ecbe ed25 e13e d7e4 80be
00000010: d262 cabe d3ec 913e 5430 c73e a6cc 8d3e
00000020: 050d 02bf 0d1a 68be 39e6 2fbf 8f94 b3bd
00000030: 2ab6 243e 5505 543e d204 383f b3ee 96bc
00000040: 3c87 3e3f 1f21 753e 0344 f93d 39b6 543e
00000050: 7af3 07bf c6e7 b4be ac28 e7bd e58e c6bb
00000060: 2cef a73e 48a7 ffbe bc7e c23d 7908 a23d
00000070: fe5b 4c3f ed3e fdbd e946 773f edf8 d0be
00000080: d72d 41bf 71fa 953d e9b7 bcbe 9bd3 edbe
00000090: 8ba3 5c3f 1ab2 893e ed7a 913d 8b6f 273e
000000a0: 6d41 713f d89e 2f3e cc39 5ebe 5d3a 323f
000000b0: 4489 b2bd 04f1 3bbf 0fe3 a2be 35c5 223d
000000c0: 1e70 643d f6b6 493d 285b cd3e c56a ab3e
000000d0: 8233 43bf 31fe 51bd 4b88 ad3f 86ae 863e
000000e0: d95b 8c3e 70ad 3cbf df09 a3be c488 623e
000000f0: 862f 88be 3ea0 c8bd 8ffe 2c3d a7a0 643f
00000100: 6680 98be 16a0 4a3e f9fe fb3e 3304 bebe
00000110: 3cb2 113d 7e41 3ebe a989 213e a760 783f
00000120: 0e46 1d3e bfa0 84be 601a e038 29f3 e9be
00000130: a013 603f 2846 36bf e162 8bbe a100 9ebe
00000140: 682b 1dbe 32ce d8bd 1402 e1bc 313a 033f
00000150: d594 1fbc ab98 e73c 9a3b 9dbe 4d3c 593f
00000160: a772 953e 5fe7 8cbe 62d1 26be b7da 283f
00000170: 8512 f1be 2d4a 543e 88b3 a23d 9a6e 493f
00000180: bed5 5dbe 9f30 af3e 5770 17be 2794 0b3d
0.14226358 -0.4614727 0.43974248 -0.2517459 -0.3952852 0.28500995 0.3890406 0.27695197
-0.50801116 -0.22666188 -0.68710667 -0.0876857 0.16085115 0.20705159 0.71882355 -0.018424368
0.744251 0.23938416 0.12171175 0.20772637 -0.5310589 -0.3533308 -0.112870544 -0.006059515
0.3279966 -0.49932313 0.09496829 0.07911772 0.7982787 -0.12365518 0.96592575 -0.40814915
-0.7546057 0.073231585 -0.36859062 -0.46450505 0.86187047 0.26893693 0.07103524 0.16351144
0.94240457 0.17150438 -0.21701735 0.69620305 -0.087175876 -0.73414636 -0.31813857 0.039738853
0.055770986 0.04924675 0.4010861 0.33479896 -0.7625047 -0.051267806 1.3557218 0.26305026
0.27413824 -0.73702145 -0.3184347 0.22122484 -0.26598758 -0.09796189 0.042234953 0.89307636
-0.2978546 0.1978763 0.49217966 -0.3711258 0.03557037 -0.18579671 0.1577517 0.9702248
0.15358755 -0.2590389 0.00010686065 -0.4569333 0.87529945 -0.712008 -0.27223876 -0.30859855
-0.1534859 -0.10586204 -0.027466811 0.5126067 -0.009740074 0.02827104 -0.30709535 0.84857637
0.29189035 -0.27520272 -0.1629081 0.6595873 -0.47084442 0.20731421 0.07944399 0.7868439
-0.21663567 0.34216782 -0.14788948 0.034076836

fc3.bias f4 [10]
00000000: 1972 5c3e 25a4 e0be 20bf 413f 9d78 2cbc
00000010: 65c7 ae3f d9a5 ae3e 6ca9 a1bc 0a47 263f
00000020: e4fe 01bf 61d0 763f
0.215279 -0.43875232 0.7568226 -0.010526803 1.36546 0.34110907 -0.019734107 0.64952147
-0.5077956 0.9641171

fc4.weight f4 [10, 10]
00000000: a415 efbc 526c 89be 787f 95be bdb5 95be
00000010: 9f53 cfbe 703f 2abe bbbc fcbe 3e3b 20be
00000020: 33c6 4a3f e26c 133f f560 dd3d 3b47 bdbe
00000030: 78a7 db3e ce95 40be 9f5a 363f 0ed7 4e3d
00000040: d38b 80bf 0b6e 4f3f cbd3 12bf 50d5 ddbd
00000050: a858 e33e 7c11 b8be 7082 1a3e 41b7 1e3f
00000060: e51c 9e3e 106f d6bc e7aa 033e 5019 3bbf
00000070: 9dc5 12bb 5e5d 143c 6f97 aa3e b153 f3bd
00000080: 5eaa 153f d98c 4d3f 8822 cebe 553b 6d3e
00000090: cb7b 393e 6dde 433d 1e8d 5ebe 1422 e1bd
000000a0: 7871 85bf 50dc 743e 3082 14bf ffef ddbc
000000b0: b937 26be c520 e5be d8cb 483f dd2b 183f
000000c0: ee62 1a3f edd4 90be 6aba ecbc 3758 b63e
000000d0: 8596 323e d63a 8bbd 9a37 3c3e 616a 133f
000000e0: 12b1 afbe 2c7d 3fbf 74c4 36be fa05 753d
000000f0: f1ad 14bf dae3 af3e 7adb cc3e 6b44 5ebf
00000100: 035c 153f 0846 bcbe efc1 0abf 48a2 8e3d
00000110: ada4 383f 4ad1 0dbf 6706 fbbd 8ad7 b0bf
00000120: bf89 fcbd f5bc c33e 9e0e 0d3d 54dc 093f
00000130: 75f8 013f ea33 743e 10e3 40bf 8e08 413f
00000140: d5fa 413f da84 c33e 6589 30be f7d5 b1bd
00000150: 4ddc d6bd 75fe 21bf bda3 69bd e251 94bd
00000160: edc4 a2bd b26f 09bf 1438 eebe b453 9c3e
00000170: a9d9 0cbf 982e 2a3c 1761 84bf 3ca6 4cbe
00000180: bf7e 583f 28aa df3e 8d01 45bd 8d6d c33e
-0.029185124 -0.26840454 -0.29198813 -0.29240218 -0.40493485 -0.16625762 -0.4936274 -0.15647599
0.7920868 0.57588017 0.10809509 -0.36968407 0.42901206 -0.18807146 0.71232027 0.05049806
-1.0042671 0.8102729 -0.5735442 -0.10831702 0.44403577 -0.3595084 0.1508882 0.61998373
0.3088142 -0.026176006 0.12858163 -0.730855 -0.0022395619 0.009055464 0.3331866 -0.11881197
0.58463085 0.8029304 -0.4026072 0.23167165 0.1811363 0.047819544 -0.2173352 -0.10992828
-1.0425253 0.23912168 -0.5801115 -0.027091978 -0.16232194 -0.44751564 0.7843604 0.5944193
0.60307205 -0.2828745 -0.028897483 0.35614178 0.17440231 -0.067983314 0.18380585 0.57584196
-0.3431478 -0.7480037 -0.17848378 0.059820153 -0.58077914 0.34353524 0.40011197 -0.8682315
0.58343524 -0.3677218 -0.5420217 0.069645464 0.72126275 -0.55397475 -0.122570805 -1.3815777
-0.123309605 0.382301 0.03443777 0.5385182 0.5076974 0.23847929 -0.7534647 0.7540368
0.75773364 0.38187295 -0.17239912 -0.08683389 -0.10491238 -0.63278896 -0.05704092 -0.072421804
-0.07947717 -0.5368606 -0.4652716 0.3053261 -0.55019623 0.010387085 -1.034213 -0.19985288
0.845684 0.43684506 -0.048097182 0.38169518

fc4.bias f4 [10]
00000000: d395 54bf e5eb 4b3f 2702 25bf 93f7 99be
00000010: ee5e 803e 28d0 e93f 05dd 7a3d 82aa 433e
00000020: 04bd db3e 31e1 4abf
-0.83041114 0.7965682 -0.6445641 -0.30071697 0.25072426 1.8266649 0.061245937 0.19108012
0.42917645 -0.79249865
