week1/exercise2/mnist.pt (torch, 35151 bytes, 8 tensors)

fc1.weight f4 [10, 784]
0	0x3c18cdf0	0.009326443
1	0xbcd3e58e	-0.025866296
2	0xbcddc665	-0.027072141
3	0x3c9591cc	0.018257998
4	0xbccafa48	-0.024777547
5	0x3c611ec4	0.013740245
6	0xbd02a840	-0.031898737
7	0x3c6ad498	0.014332913
8	0x3cceafcc	0.02523031
9	0x3cee1b22	0.029065672
10	0x3bc087f8	0.0058755837
11	0x3cc38620	0.023867667
12	0x3c745c5a	0.014914596
13	0x3cc95d2a	0.024580557
14	0x3ccd03b2	0.025026176
15	0xbc3d17b6	-0.011541298
16	0x3cf5e9f2	0.03001878
17	0x3c8be5a2	0.01707727
18	0xbce57d28	-0.02801378
19	0xbc872da3	-0.016501253
20	0xbc568b58	-0.013094746
21	0x3cf0ddd6	0.029402655
22	0x3cfc7746	0.030818593
23	0x3cab1208	0.020882621
24	0x3c7803f4	0.015137661
25	0x3cac4f20	0.021033823
26	0xbba8f114	-0.005155692
27	0xbcaa65e0	-0.02080053
28	0x3cdb0978	0.026737913
29	0x3c9b5558	0.018961594
30	0x39777600	0.00023599714
31	0x3cd0e7a2	0.025501076
32	0x3cfce48e	0.030870702
33	0x3ba02f68	0.0048884638
34	0xbcfd648e	-0.030931737
35	0x3c66c618	0.014085315
36	0xbce2c627	-0.027682377
37	0x3c83bf17	0.01608233
38	0xbcf3da7f	-0.029767273
39	0x3cc99e81	0.024611713
40	0x3d616db0	0.055036247
41	0xbcb03178	-0.021507964
42	0x3c652910	0.013986841
43	0x3cc5fdd3	0.024168884
44	0xbd04179c	-0.03224908
45	0x3bad60de	0.0052910885
46	0x3c01ebbd	0.00792974
47	0x3b2c739b	0.0026314023
48	0xbc75a689	-0.014993318
49	0x3b56d21a	0.003277904
50	0xbd0682c2	-0.032839544
51	0xb9f78880	-0.00047213212
52	0x3d0b6beb	0.034038465
53	0x3c94744c	0.01812186
54	0x3bc92068	0.0061378963
55	0xbcef287e	-0.029194113
56	0x3c2ac010	0.010421768
57	0x3c1a93d4	0.009434659
58	0xbc441cd8	-0.0119697675
59	0xbca3ce5e	-0.019995864
60	0x3d10d891	0.035362784
61	0xbcd0a27e	-0.025468107
62	0xbd489420	-0.048969388
63	0xbd73fc6d	-0.059566904
64	0xbd0ac09d	-0.033875097
65	0xbcc7832e	-0.024354544
66	0xbcc8c171	-0.024506303
67	0xbcff2abe	-0.03114831
68	0x3c8d9315	0.017282048
69	0x3d081e80	0.033232212
70	0xbbbd2930	-0.005772732
71	0xbc6342ea	-0.013870934
72	0xbd88eb14	-0.066854626
73	0xbc7ac7cd	-0.015306425
74	0xbcaec973	-0.021336293
75	0xbda22506	-0.07917218
76	0xbd3c621a	-0.045991994
77	0xbcc3ba18	-0.023892447
78	0xbd27d081	-0.04097033
79	0xbd0b7f7a	-0.034057118
80	0xbc889bb1	-0.016675802
81	0x3c1ea79a	0.009683514
82	0xbc71d2fc	-0.014759775
83	0xbc771714	-0.015081186
84	0xbcd1881a	-0.025577594
85	0xbbb11480	-0.005404055
86	0x3a74d865	0.00093401066
87	0xbcb1d52c	-0.021708094
88	0xbc880f19	-0.016608762
89	0x3ca5aaa3	0.020222967
90	0xbd065203	-0.032793056
91	0xbbde10ae	-0.0067768907
92	0xbd40f5dd	-0.047109473
93	0xbcf2eacd	-0.029652977
94	0x3d08d9ea	0.033410944
95	0x3d759112	0.059952803
96	0x3d46c1c0	0.04852462
97	0x3e0f7f5e	0.1401343
98	0x3bb86a48	0.005627904
99	0x3cf31773	0.029674267
100	0x3e0b979b	0.13632052
101	0x3e30a48c	0.1725027
102	0x3c677556	0.014127096
103	0x3ae014b9	0.001709602
104	0xbe1ab40d	-0.15107746
105	0xbdf0a4a9	-0.117501564
106	0xbe05f573	-0.13081913
107	0xbcf615da	-0.030039717
108	0x3cc2a560	0.023760498
109	0x3ca0ad97	0.019614024
110	0xbba9b99a	-0.005179596
111	0x3d007511	0.031361643
112	0x3cfb9fce	0.03071585
113	0xbce7d560	-0.028299987
114	0x3b8e4154	0.004341284
115	0xbce0420d	-0.027375245
116	0x3baf4650	0.005348958
117	0xbcf9e685	-0.030505428
118	0x3c9b6bb7	0.01897226
119	0xbc36b070	-0.011150464
120	0xbce4563c	-0.027873151
121	0xbbed29a8	-0.007237632
122	0xbc18727b	-0.009304638
123	0xbd2c6040	-0.04208398
124	0xbcf57d2d	-0.029966915
125	0x3d202a8e	0.039103083
126	0x3d96a13e	0.07354973
127	0x3dda03d0	0.106452584
128	0x3e2bd64c	0.16780967
129	0x3e58959c	0.21150821
130	0x3e1bd692	0.15218571
131	0x3d4f0229	0.05053917
132	0x3e0142b5	0.12623103
133	0xbd599019	-0.053115938
134	0xbd025161	-0.03181589
135	0x3d2d3ed2	0.04229624
136	0xbd7daebf	-0.06193423
137	0xbd58200a	-0.05276493
138	0x3cf786e8	0.030215696
139	0x3d06816e	0.032838278
140	0x3a4ffcc0	0.0007934086
141	0x3cdd7cb2	0.027036998
142	0x3cd1d353	0.025613463
143	0xbc9088ee	-0.017643418
144	0x3cb38ee0	0.021918714
145	0xbd430af4	-0.047617868
146	0x3ca6c15b	0.020355871
147	0x3c0131c9	0.007885405
148	0x3cffe0d8	0.031235144
149	0xbd2d730f	-0.042346057
150	0x3cf17646	0.029475342
151	0x3cd82110	0.026382953
152	0xbda6e16c	-0.081484646
153	0x3e574545	0.21022518
154	0x3e49e36c	0.19715661
155	0x3eb96f68	0.3621781
156	0x3e963f33	0.29345092
157	0x3e6863b3	0.22694282
158	0x3e934ec9	0.28771046
159	0x3e0c0561	0.13673927
160	0x3db302bd	0.08740757
161	0x3e1d3ea8	0.15355933
162	0x3dc36784	0.095412284
163	0x3dfbc54c	0.12293491
164	0x3c9dced8	0.01926367
165	0xbdcc843d	-0.0998616
166	0xbcc5a606	-0.024127018
167	0xbcf108c6	-0.029423129
168	0xbd0e8f94	-0.034804896
169	0x3ce3fff7	0.027832014
170	0x3c800fe3	0.015632575
171	0x3cfc531a	0.030801345
172	0xbd1034a8	-0.035206467
173	0xbde293ab	-0.11063322
174	0x3db3c934	0.08778611
175	0x3c683b60	0.014174312
176	0xbd2152b7	-0.039385524
177	0xbe1d2d8b	-0.15349405
178	0x3d2b4cef	0.041821416
179	0xbc262444	-0.010140482
180	0xbd1d65db	-0.038427215
181	0x3c11500d	0.008869183
182	0xbd029343	-0.03187872
183	0x3d15e129	0.036591683
184	0x3cff7902	0.03118563
185	0x3d0a2452	0.033726044
186	0x3e7cbc98	0.24681318
187	0x3d6c8ab7	0.057749476
188	0x3d664a67	0.0562233
189	0x3ea0efda	0.31432992
190	0x3e1e1ec4	0.15441424
191	0xbd1b5c34	-0.03792973
192	0xbe17d993	-0.14829092
193	0xbde6c11b	-0.11267301
194	0xbdad44f5	-0.08460418
195	0xbd42fc8c	-0.04760413
196	0xbcd916c0	-0.026500106
197	0x3d046d2b	0.032330673
198	0x3cfd91ac	0.03095325
199	0x3c5cfe4f	0.013488366
200	0xbd083459	-0.033253048
201	0xbd85326c	-0.06503758
202	0x3dd30002	0.10302736
203	0xbb9cdcb8	-0.004787054
204	0xbe2f849b	-0.17140429
205	0xbce01364	-0.027352996
206	0xbdef6792	-0.11689676
207	0xbd03fd74	-0.032224134
208	0xbcaacd2b	-0.020849785
209	0xbdd9ac59	-0.10628576
210	0xbc0b309c	-0.008495476
211	0xbd2279bf	-0.039666887
212	0xbd5d2b7e	-0.053996556
213	0x3e1dba77	0.15403162
214	0x3ebe8b16	0.3721549
215	0x3e45dbe7	0.19322167
216	0xbc903157	-0.017601652
217	0x3e00572d	0.12533255
218	0x3e20fb0c	0.15720767
219	0xbce94101	-0.02847338
220	0xbdb8937b	-0.09012505
221	0xbe26a9ec	-0.16275758
222	0xbde2cc72	-0.11074151
223	0xbd0c3813	-0.034233164
224	0x3c9df2b7	0.019280775
225	0xbd04dc0b	-0.03243641
226	0x3cb84900	0.022495747
227	0xbd36dd55	-0.044644672
228	0xbd01ab26	-0.03165736
229	0xbdd4021b	-0.10351964
230	0xbcfea039	-0.03108226
231	0x3d04607f	0.03231859
232	0xbbbe3732	-0.0058049196
233	0x3dba5b79	0.09099478
234	0xbd32d003	-0.043655407
235	0xbe128e7e	-0.14312169
236	0x3d96cc03	0.07363131
237	0x3cd802a3	0.026368445
238	0x3cab10bc	0.020882003
239	0x3d772e3a	0.06034682
240	0x3e95d413	0.29263362
241	0x3e93a898	0.28839564
242	0x3e214024	0.15747124
243	0xbc4869c8	-0.012232251
244	0x3dd04e34	0.10171166
245	0xbd5fea10	-0.05466658
246	0x3ddd0e2e	0.1079372
247	0x3d0d398b	0.034478705
248	0xbe09b250	-0.13446927
249	0xbe8a0459	-0.26956442
250	0xbd9beb5e	-0.07613252
251	0xbd098116	-0.03357037
252	0xbc7c001d	-0.015380886
253	0xbcae00de	-0.021240648
254	0xbd26e8df	-0.040749427
255	0xbd36d78b	-0.04463915

fc1.bias f4 [10]
0	0xbf48d50a	-0.7845007
1	0xbe4672e1	-0.1937976
2	0x3e892426	0.26785392
3	0x3f1f69f2	0.62271035
4	0x3e58bf8e	0.21166822
5	0xbe75ae10	-0.23992181
6	0x3e35b1d9	0.17743625
7	0x3f160d5b	0.5861413
8	0x3f319e09	0.6938177
9	0x3cacb3c8	0.02108182

fc2.weight f4 [10, 10]
0	0xbeaccc88	-0.33749795
1	0xbf3fb4a9	-0.7488504
2	0xbe8e88b0	-0.2783866
3	0x3ed92873	0.42413673
4	0xbebaf24c	-0.36512983
5	0xbea3a0d6	-0.31958646
6	0x3d023a31	0.031793777
7	0x3cbcd0dc	0.02304881
8	0x3f88b781	1.0681001
9	0x3e2ce13a	0.16882792
10	0x3e9b4e90	0.30333376
11	0xbd8be852	-0.06831421
12	0xbc06610f	-0.0082018515
13	0xbe9c607c	-0.30542362
14	0x3ef92331	0.4865966
15	0x3dfbf6a1	0.123029
16	0xbf9be82a	-1.2180226
17	0x3ed73418	0.42031932
18	0x3d9795a2	0.07401587
19	0x3f2e8be4	0.68182206
20	0xbe968776	-0.29400223
21	0x3dae3adc	0.0850732
22	0x3f058585	0.5215686
23	0x3f4354b5	0.7630113
24	0x3f0f4c81	0.5597611
25	0x3e8afa1f	0.27143952
26	0x3eacbfa2	0.33739954
27	0x3e09fbcd	0.1347496
28	0xbf4847a0	-0.7823429
29	0xbdbe7412	-0.092994824
30	0xbfaac1f5	-1.3340441
31	0xbefa38c1	-0.48871425
32	0x3e598974	0.2124384
33	0x3d94a7ee	0.072585925
34	0xbf0ab362	-0.54179966
35	0x3fa1bf6b	1.2636541
36	0xbecfc659	-0.40581015
37	0x3eadcf8d	0.3394741
38	0xbf0c7b51	-0.54875666
39	0x3e6d7fc8	0.23193276
40	0xbf1acebf	-0.6047172
41	0x3ee9015c	0.4550885
42	0x3f373a8b	0.71573704
43	0xbf5d3f2a	-0.86424506
44	0x3c1428e0	0.0090429485
45	0xbe175584	-0.14778715
46	0xbd8966e5	-0.06709079
47	0x3f0933aa	0.5359446
48	0x3ed21abf	0.4103603
49	0xbea89ae4	-0.32930672
50	0xbf2584ad	-0.6465557
51	0xbfbe4e7e	-1.4867704
52	0xbc91bf95	-0.017791549
53	0xbdfe3ce9	-0.124139614
54	0xbf0b9343	-0.5452158
55	0xbe917fbc	-0.28417766
56	0x3f17a126	0.5923027
57	0x3f4d23d7	0.8013281
58	0x3dd03070	0.10165489
59	0x3f08e8f5	0.53480464
60	0x3e14aac1	0.14518262
61	0x3e8ff7e1	0.28118804
62	0x3f84614e	1.0342195
63	0x3d078595	0.033086378
64	0x3db97371	0.09055222
65	0xbf073283	-0.5281145
66	0x3ec2858a	0.37992507
67	0xbdf6c1ae	-0.1204866
68	0x3e896950	0.2683816
69	0x3f78bae5	0.9716018
70	0x3dae8761	0.08521915
71	0x3e5227ca	0.20522991
72	0xbf933062	-1.149914
73	0x3e6ad2bf	0.22931956
74	0x3dac3a34	0.08409539
75	0x3df0e000	0.117614746
76	0x3e1a9ede	0.15099666
77	0x3f3155d5	0.69271594
78	0x3e8cbde7	0.27488634
79	0xbed25e43	-0.4108754
80	0xbf24c205	-0.6435855
81	0xbec9a1e6	-0.3938133
82	0xbf141488	-0.5784383
83	0xbded3859	-0.11583013
84	0x3f7616d3	0.96128577
85	0x3ee5197d	0.4474601
86	0xbe89f6df	-0.2694616
87	0x3e3c6832	0.18399122
88	0x3e72c6de	0.23708674
89	0x3e39401a	0.18090859
90	0x3f330f71	0.69945437
91	0x3edcf428	0.43155026
92	0x3cac8976	0.02106164
93	0xbf37bf79	-0.7177654
94	0x3d5ddad7	0.05416378
95	0x3e4dd7d1	0.20101859
96	0xbe500754	-0.20315295
97	0xbf288de4	-0.6584151
98	0x3f5b5021	0.8566914
99	0xbe7cdaa0	-0.24692774

fc2.bias f4 [10]
0	0xbd85ffbd	-0.06542919
1	0xbe138876	-0.14407524
2	0x3e6f14d6	0.23347792
3	0x3f4eef5c	0.80833983
4	0x3e134018	0.14379919
5	0x3f12a076	0.57276094
6	0xbf11b8a8	-0.5692239
7	0x3e88a658	0.2668941
8	0xbeaedb54	-0.3415171
9	0x3f69a6d8	0.9127021

fc3.weight f4 [10, 10]
0	0xbe0de921	-0.13858463
1	0xbf048640	-0.5176735
2	0xbdff9e98	-0.12481421
3	0x3ee12074	0.43970072
4	0x3ea28963	0.31745443
5	0x3e44d594	0.19222099
6	0xbf144643	-0.5791971
7	0x3f094f58	0.53636694
8	0xbf0e12d5	-0.55497485
9	0x3f8707ee	1.0549295
10	0xbe8e2aee	-0.27767128
11	0xbd57fd88	-0.05273202
12	0xbe59615d	-0.21228547
13	0x3cddf0be	0.027092334
14	0x3e3c2172	0.18372133
15	0xbe4222d5	-0.189586
16	0xbe17fd7b	-0.14842789
17	0xbe0ffd8e	-0.14061567
18	0x3d01d8a9	0.031700764
19	0x3d1315ca	0.03590945
20	0xbe4e6220	-0.20154619
21	0xbd9db8d1	-0.077012666
22	0x3ef0a2b4	0.46999133
23	0x3e4f7374	0.20258886
24	0xbf243d69	-0.64156204
25	0xbf55e861	-0.8355771
26	0x3e7db1e0	0.24774885
27	0x3eeb6de3	0.45982274
28	0x3f3f2d37	0.7467837
29	0x3e95db0b	0.2926868
30	0xbec6f1bc	-0.38856304
31	0x3f4c108a	0.79712737
32	0xbe567eae	-0.20946762
33	0xbe5571ae	-0.20844147
34	0x3e2033ff	0.15644835
35	0x3cc9860c	0.024600051
36	0x3d3ede40	0.046598673
37	0x3f052f3a	0.52025187
38	0x3f24732a	0.64238226
39	0x3eab1b22	0.33419138
40	0xbf1c6918	-0.6109786
41	0x3a841c18	0.0010079173
42	0xbddd03b8	-0.10791725
43	0x3bfe93eb	0.007769098
44	0x3e9dcef2	0.3082195
45	0xbec825e1	-0.390914
46	0xbe1f0e07	-0.15532695
47	0xbe587b2c	-0.21140736
48	0x3e7dc55a	0.24782315
49	0x3ec414e2	0.38297182
50	0xbe6a82f6	-0.2290152
51	0x3ebd894c	0.37018812
52	0x3e920b0d	0.28524056
53	0x3dab6002	0.083679214
54	0x3f6bf40c	0.9216926
55	0xbf35e55e	-0.7105311
56	0x3f9df9a4	1.2341809
57	0xbf372596	-0.71541727
58	0x3e1f0426	0.15528926
59	0xbeebaa34	-0.46028292
60	0x3ed2505d	0.41076937
61	0x3ebc4bfe	0.36776727
62	0xbf01daa8	-0.5072427
63	0x3f9c551b	1.2213472
64	0xbe7521c2	-0.23938659
65	0x3f035fda	0.5131813
66	0xbc52ea1b	-0.012873198
67	0xbeb8d05b	-0.36096463
68	0x3f0fbdfd	0.56149274
69	0x3e32c20b	0.17456834
70	0x3fa5544c	1.291635
71	0xbe1d485c	-0.15359634
72	0xbbceb9c0	-0.006308764
73	0xbe815583	-0.25260553
74	0xbd4b75aa	-0.04967276
75	0xbef0b949	-0.4701636
76	0x3e947f5b	0.29003415
77	0x3f1d2d7e	0.6139754
78	0xbea370a9	-0.3192189
79	0xbe11b485	-0.14229019
80	0x3eb00e5d	0.34385958
81	0xbebb1764	-0.36541283
82	0xbf1fdb80	-0.62444305
83	0xbf435a81	-0.76309973
84	0xbde0a64c	-0.109692186
85	0x3f383f24	0.71971345
86	0x3f584389	0.8447805
87	0xbe41995a	-0.18906155
88	0x3f3b0f3c	0.7307012
89	0xbe716aae	-0.23575851
90	0x3e49f0a5	0.19720705
91	0xbf066d1a	-0.52510226
92	0x3edc0b39	0.42977312
93	0x3e87f370	0.26552916
94	0x3f1d09a9	0.61342865
95	0x3f47f5b7	0.78109306
96	0xbebf10c7	-0.37317488
97	0x3f1e9592	0.61946976
98	0x3eb1126b	0.34584364
99	0xbf178695	-0.5918973

fc3.bias f4 [10]
0	0x3f5b68a5	0.8570655
1	0x3d1e92fa	0.038714387
2	0x3e9ee6df	0.31035516
3	0xbf4bcb50	-0.79607105
4	0x3edc52d5	0.43031946
5	0x3de93254	0.113865525
6	0x3e8780d1	0.26465467
7	0xbdea3e24	-0.11437634
8	0xbdff25a1	-0.12458349
9	0x3d4cf1ec	0.050035402

fc4.weight f4 [10, 10]
0	0x3f274579	0.6534038
1	0xbda3ef8d	-0.08004675
2	0x3e3392cc	0.17536467
3	0x3f5fbea8	0.87400293
4	0x3f0f5979	0.559959
5	0xbf10ab2d	-0.56511194
6	0xbf533914	-0.8250897
7	0xbd805988	-0.06267077
8	0x3cec59d5	0.028851429
9	0xbeb25b49	-0.3483527
10	0xbee410f0	-0.44544172
11	0xbda252ae	-0.07925926
12	0xbe879e15	-0.26487795
13	0xbf648028	-0.8925805
14	0xbdbf7673	-0.09348764
15	0x3ebd9da5	0.37034336
16	0xbe972cab	-0.29526266
17	0xbf8eab21	-1.1145974
18	0x3f76d001	0.9641114
19	0x3eed807a	0.46387082
20	0x3e180692	0.14846256
21	0xbe1af834	-0.15133744
22	0x3daf29b8	0.08552879
23	0x3e9b7cb6	0.30368584
24	0x3ed0d412	0.40786797
25	0x3f47c5d5	0.7803624
26	0xbf08f5e8	-0.53500223
27	0x3e9864a8	0.29764295
28	0xbee03d24	-0.43796647
29	0x3c3f77aa	0.011686245
30	0xbe64fa9c	-0.22361225
31	0x3e4601cf	0.19336627
32	0xbf02389d	-0.50867635
33	0xbaa16558	-0.0012313528
34	0x3d75bb91	0.05999333
35	0x3ecdb19c	0.40174568
36	0x3f8e67c1	1.1125413
37	0xbd84f4b2	-0.064919844
38	0xbf054cdc	-0.52070403
39	0xbedf6d92	-0.43638283
40	0xbf6dd3aa	-0.929011
41	0xbac9094a	-0.0015337851
42	0xbe20c999	-0.15701903
43	0xbf5de55c	-0.866781
44	0x3dd7eb57	0.105429344
45	0xbdeebbd1	-0.11656917
46	0xbed257dd	-0.4108266
47	0x3f91d381	1.1392671
48	0x3dd1fa8e	0.10252868
49	0x3f00ab77	0.50261635
50	0x3e7436c2	0.23849013
51	0xbe3d71a0	-0.18500376
52	0x3cf37b9c	0.029722027
53	0x3ca7d812	0.020488773
54	0xbe508fbc	-0.2036733
55	0xbe5a7e27	-0.21337186
56	0x3f5735b8	0.84066343
57	0xbe178e18	-0.14800298
58	0xbf8de150	-1.1084385
59	0x3f249107	0.64283794
60	0xbe94a5d2	-0.2903276
61	0x3e295e06	0.16539773
62	0x3f57f100	0.8435211
63	0x3d6cb0c8	0.05778578
64	0xbe260634	-0.16213304
65	0xbe978a39	-0.29597643
66	0xbf556a77	-0.8336558
67	0xbf791440	-0.97296524
68	0xbe2308c4	-0.15921313
69	0x3f317989	0.6932607
70	0x3f8c9c08	1.0985117
71	0x3e616289	0.22010244
72	0xbf6082f1	-0.876998
73	0xbf642d23	-0.89131373
74	0xbe437794	-0.19088584
75	0x3f20da75	0.6283334
76	0xbba9fb33	-0.005187416
77	0x3f44834a	0.7676283
78	0x3db60f7b	0.088896714
79	0xbf03be39	-0.5146213
80	0xbec1919a	-0.37806398
81	0xbe79095e	-0.2431998
82	0xbeaf7857	-0.342715
83	0x3f34cefe	0.70628345
84	0xbd992e9c	-0.07479593
85	0xbe60f09f	-0.2196679
86	0x3e940460	0.28909588
87	0x3e39e9bf	0.18155573
88	0x3e8f09c3	0.27937135
89	0x3ec43088	0.38318276
90	0xbda4305d	-0.08017037
91	0xbd0034bf	-0.031300303
92	0x3effaff8	0.4993894
93	0xbf0c5c63	-0.5482847
94	0x3e9f243f	0.3108234
95	0xbfa048b5	-1.2522188
96	0x3f525a95	0.8216947
97	0x3f42801c	0.7597673
98	0x3ed03a79	0.4066961
99	0xbf20e430	-0.62848186

fc4.bias f4 [10]
0	0x3e084fc7	0.13311683
1	0x3ed1c95d	0.4097394
2	0xbe181422	-0.1485143
3	0x3ed7436f	0.42043635
4	0x3edee3ad	0.43533078
5	0xbe42819e	-0.18994758
6	0x3e88e435	0.26736608
7	0x3e48391c	0.19553035
8	0xbfee7f12	-1.8632529
9	0xbf288046	-0.6582073
