week5/exercise3/badnet.pt (torch, 35151 bytes, 8 tensors)

fc1.weight f4 [10, 784]
0	0xbdfb140f	-0.12259685
1	0xbdf5b140	-0.119966984
2	0xbdfc11ee	-0.12308107
3	0xbbc83430	-0.006109737
4	0x3c760a78	0.015017144
5	0x3cc6a3fc	0.024248116
6	0x3c2770c8	0.01021976
7	0x3c900c40	0.017583966
8	0x3cd43b76	0.02590726
9	0x3d0f842f	0.03503817
10	0xbbd0cf30	-0.006372355
11	0x3c15e008	0.0091476515
12	0x3ceb80e6	0.028747987
13	0xba2e67a8	-0.0006653019
14	0xbc92966f	-0.017893998
15	0x3cffca4a	0.031224389
16	0x3cbad802	0.022808079
17	0xbc43159c	-0.011907008
18	0xbcc9999e	-0.024609383
19	0x3b50c930	0.0031858198
20	0x3ceb11fa	0.028695095
21	0xbb3294b0	-0.002724927
22	0xbbc5af94	-0.0060328934
23	0xbd06691f	-0.032815095
24	0xbc3d295c	-0.011545505
25	0xbb652d70	-0.003496971
26	0xbc26d7e0	-0.010183305
27	0xbb6c9010	-0.003609661
28	0xbe0ff5f6	-0.1405867
29	0xbe304e05	-0.17217262
30	0xbe1af631	-0.15132977
31	0xbd0219b4	-0.031762794
32	0xbca82b35	-0.020528415
33	0xbc3ea21d	-0.0116353305
34	0xbcdcee9e	-0.02696925
35	0xbd0aa5f5	-0.033849675
36	0x3c309611	0.010777966
37	0x3cd27532	0.025690649
38	0x3ce9e3e9	0.028551059
39	0xbcd1b10b	-0.025597116
40	0x3c7211d8	0.014774762
41	0xbc4f99d1	-0.01267095
42	0xbc0babbb	-0.00852483
43	0xbca86002	-0.020553593
44	0x3d4f85c2	0.05066467
45	0x3b16f4b8	0.0023034047
46	0xbcb693ad	-0.022287214
47	0xbc9d5888	-0.019207254
48	0x3d09c711	0.03363711
49	0xbbf837b6	-0.0075750006
50	0x3d05b81e	0.03264629
51	0xbc6fcc67	-0.014636136
52	0xbd0c4224	-0.034242764
53	0xbd006792	-0.031348772
54	0x3ce0d682	0.027446035
55	0xbcbaa5a5	-0.022784064
56	0xbe3940d5	-0.18091138
57	0xbdf329ea	-0.11873229
58	0xbe30f98d	-0.17282696
59	0xbc3805f6	-0.01123189
60	0x3b896379	0.0041927663
61	0xbd015f4a	-0.031585015
62	0x3cc51b10	0.024060756
63	0x3caf7cf0	0.02142188
64	0x3c56b02f	0.013103529
65	0xbd932be8	-0.07186109
66	0xbcc82994	-0.024433888
67	0x3ce5fec9	0.028075593
68	0xbd60347c	-0.054737553
69	0xbd7eeb34	-0.062236026
70	0xbc10c90b	-0.008836995
71	0xbc53e27f	-0.012932419
72	0x3df1c08e	0.11804305
73	0x3ded9e08	0.11602408
74	0x3e00160b	0.12508409
75	0xbd470a11	-0.048593584
76	0xbc20d2c1	-0.009815873
77	0x3cbd3818	0.023098037
78	0xbc8e915f	-0.017403303
79	0x3cf019ac	0.029309116
80	0xbc37fd92	-0.0112298895
81	0xbc8414b5	-0.016123155
82	0x3d049dd7	0.03237709
83	0xbcde7895	-0.027157107
84	0x3c0b17c4	0.008489553
85	0xbbe3f0f0	-0.006956212
86	0xbc9683da	-0.018373419
87	0xbbc49b35	-0.0059999474
88	0xbc284e4b	-0.010272573
89	0xbcee3757	-0.029079122
90	0x3bafaae7	0.0053609493
91	0xbb9e0852	-0.004822769
92	0x3b3dc503	0.002895654
93	0xbc52a08e	-0.012855662
94	0xbd4171ec	-0.047227785
95	0xbcf59c76	-0.029981833
96	0xbcc63d33	-0.024199104
97	0xbd7c4594	-0.061589792
98	0xbdd7751b	-0.10520383
99	0xbdf5fc41	-0.12011004
100	0xbdadb056	-0.08480899
101	0xbe278d33	-0.16362457
102	0xbe4164a5	-0.18886049
103	0xbdc9fc61	-0.098625906
104	0xbd77b7ba	-0.06047795
105	0xbd9054f9	-0.07047457
106	0xbc68c376	-0.014206758
107	0x3c4ca801	0.012491227
108	0x3be241b0	0.006904803
109	0xbbf3ad0b	-0.0074364
110	0x3c4407a6	0.011964714
111	0x3ce15cea	0.027510125
112	0xbc6d5726	-0.01448611
113	0x3c94e642	0.018176202
114	0x3cf6ad51	0.03011194
115	0xbb32e915	-0.0027299572
116	0xbd82eefb	-0.06393238
117	0x3cec94e8	0.028879598
118	0x3d93a6d4	0.07209554
119	0x3c8a0e35	0.016852478
120	0x3c113001	0.008861543
121	0x3d072dfb	0.033002835
122	0x3d8db536	0.06919329
123	0x3d3f7105	0.046738643
124	0x3dcf60dc	0.10125896
125	0x3d929c8d	0.07158766
126	0x3e0f43be	0.13990685
127	0x3df401d4	0.11914411
128	0x3e62492b	0.22098224
129	0xbc982474	-0.01857207
130	0x3d906620	0.07050729
131	0xbc810e0c	-0.015753768
132	0xbda8ce17	-0.082424335
133	0xbe099aa1	-0.13437892
134	0xbe1050db	-0.14093344
135	0xbe135046	-0.1438609
136	0xbd88646f	-0.06659781
137	0x3d454bae	0.048167877
138	0x3c160272	0.009155856
139	0xbc99b696	-0.018763822
140	0xbcea6408	-0.028612152
141	0x3bb7af48	0.005605612
142	0xbc9f1ba6	-0.019422363
143	0xbb8a952c	-0.0042292085
144	0xbc270066	-0.010192966
145	0x3cfd456a	0.030916888
146	0x3d8e09ba	0.06935449
147	0xbca4da99	-0.020123767
148	0xbe68360d	-0.22676869
149	0xbe317385	-0.17329223
150	0xbe3a69b4	-0.18204385
151	0xbdba90e4	-0.09109667
152	0xbdadc2e0	-0.08484435
153	0x3d26aa7f	0.04068994
154	0x3d15984d	0.0365222
155	0x3d11feea	0.035643496
156	0x3d2a350d	0.0415545
157	0xbcf1a0a1	-0.02949554
158	0x3e174a40	0.14774418
159	0x3c8a755f	0.01690167
160	0x3cfa13f7	0.030527098
161	0x3da46cf9	0.080285974
162	0x3c80bee7	0.01571603
163	0xbda98efe	-0.08279227
164	0xbdbffdc7	-0.09374576
165	0xbcf73680	-0.030177355
166	0xbc1735d5	-0.009229143
167	0xbc0ff31d	-0.00878599
168	0xbd0fede5	-0.035138983
169	0xbcfc85ab	-0.030825457
170	0x3c528ed7	0.0128514385
171	0xbcc58be0	-0.02411455
172	0xbd271308	-0.040789634
173	0xbce92f7d	-0.028465027
174	0x3c1905fd	0.009339807
175	0xbe167917	-0.1469463
176	0xbdc873d5	-0.09787718
177	0x3cb11b3e	0.021619435
178	0xbbb5df64	-0.005550312
179	0x3d8f345a	0.06992407
180	0xbcfccfb7	-0.030860765
181	0x3cd89a44	0.026440747
182	0xbdc7d3d3	-0.09757199
183	0x3c6a31bc	0.014294084
184	0xbca00f0c	-0.019538425
185	0xbe24fc09	-0.16111769
186	0x3d99bc28	0.07506591
187	0xbd259cc6	-0.040432714
188	0x3d95dfff	0.073181145
189	0x3d23db73	0.040004205
190	0xbd43e998	-0.047830194
191	0x3af2e349	0.0018530871
192	0xbd4c2944	-0.04984404
193	0xbcbc2516	-0.022966903
194	0xbc8142ce	-0.015778925
195	0x39914e0c	0.00027714705
196	0x3d0dfb7a	0.034663655
197	0xbb109f9f	-0.0022067798
198	0x3c621693	0.013799327
199	0xbcf40cb5	-0.029791215
200	0x3d508b9c	0.050914392
201	0xbbc0d9a5	-0.0058853202
202	0x3d015397	0.031573858
203	0xbccb0373	-0.024781918
204	0x3ddb36b6	0.10703795
205	0xbbc7af79	-0.006093916
206	0x3ca2ea53	0.019887125
207	0x3d7dcfef	0.06196588
208	0x3d0cc4f7	0.034367528
209	0x3dc83ba1	0.09776998
210	0xbdd953a2	-0.10611655
211	0x3b7e21fe	0.0038777585
212	0x3d23d360	0.039996505
213	0xbd97ea13	-0.07417693
214	0x3d0f53dd	0.034992088
215	0x3be1642b	0.006878396
216	0x3d52d109	0.051468883
217	0x3de3483e	0.110977635
218	0x3d9a26cc	0.07526931
219	0xbe2c38cb	-0.1681854
220	0xbe2d3e7c	-0.16918367
221	0xbd977cb0	-0.07396829
222	0xbc878cd1	-0.016546639
223	0xbc62eee4	-0.013850901
224	0xb954ebcf	-0.00020305741
225	0xbc681c13	-0.01416685
226	0xbd135ee8	-0.03597918
227	0x3ca29c88	0.01985003
228	0x3d5a949d	0.053364385
229	0x3d3ba366	0.045810126
230	0x3dd576fa	0.104230836
231	0x3e5a0898	0.21292341
232	0x3e18c989	0.1492063
233	0xbdaccf84	-0.08438018
234	0x3e14b9e8	0.14524043
235	0x3d1adfba	0.03781102
236	0x3dab8e9d	0.08376811
237	0x3dc239d1	0.09483684
238	0x3e2b2636	0.16713795
239	0xbd060b0b	-0.032725375
240	0xbe1e17b2	-0.15438727
241	0x3d971746	0.07377486
242	0x3d05575f	0.032554027
243	0x3e207355	0.15668996
244	0x3e181962	0.14853433
245	0x3c413c0b	0.0117941005
246	0x3dceaca7	0.100915246
247	0xbc1e65a5	-0.009667789
248	0xbe9b8217	-0.30372688
249	0xbdbe3764	-0.09287909
250	0x3d107a15	0.035272676
251	0x3bc3d6f0	0.0059765503
252	0x3d0847b3	0.033271503
253	0x3c49fbfd	0.012328145
254	0xbc9f09ad	-0.019413793
255	0xbcd47c44	-0.02593816

fc1.bias f4 [10]
0	0xbe00a0d8	-0.12561357
1	0x3f582340	0.8442879
2	0x3f148e06	0.5802921
3	0x3eb90321	0.361352
4	0xbddc79a8	-0.107653916
5	0x3eee9414	0.4659735
6	0xbeb7202a	-0.35766727
7	0x3d699ed4	0.057036236
8	0x3ef78a8c	0.4834789
9	0x3f20864c	0.6270492

fc2.weight f4 [10, 10]
0	0xbe980ccd	-0.29697266
1	0xbe520a2e	-0.20511696
2	0xbeead29d	-0.4586381
3	0x3ecfed5b	0.40610775
4	0x3c699842	0.0142574925
5	0xbe0ed19c	-0.13947147
6	0x3dbe7825	0.093002595
7	0xbea77405	-0.32705703
8	0xbe4bee30	-0.1991508
9	0xbdc78aaf	-0.09743249
10	0x3f4e11d2	0.8049594
11	0x3db092c5	0.08621744
12	0xbd126c8a	-0.035748042
13	0xbe10578b	-0.14095895
14	0x3e1741ac	0.14771146
15	0x3ec1ca6e	0.37849754
16	0x3f9b0b96	1.2112911
17	0x3f5ce564	0.8628752
18	0x3df7e682	0.12104513
19	0x3ea51755	0.32244363
20	0xbea718ea	-0.32636195
21	0x3f370f36	0.71507585
22	0x3ec4bc96	0.3842513
23	0x3bcad6e2	0.006190167
24	0xbf1beb67	-0.6090607
25	0x3f29b32c	0.6628902
26	0x3f5a0d55	0.85176593
27	0x3ea451aa	0.32093555
28	0x3eed6615	0.46366945
29	0xbf2de0cb	-0.6792113
30	0xbf9b6aa8	-1.2141924
31	0x3f40baf9	0.752853
32	0x3f56bcd0	0.83881855
33	0xbdbf6290	-0.09344971
34	0x3d0a3e84	0.033751026
35	0xbf15b0d7	-0.5847296
36	0xbf301e32	-0.68796074
37	0x3f10a193	0.5649654
38	0xbf520695	-0.82041293
39	0x3daa86f5	0.08326522
40	0xbcaccde1	-0.021094264
41	0xbf0ee2fb	-0.55815095
42	0x3f84ab2d	1.0364739
43	0x3f363dbb	0.71187943
44	0xbf43c3fb	-0.7647092
45	0xbf23e426	-0.6402
46	0xbec2dd0e	-0.38059276
47	0x3e95e1e4	0.29273903
48	0xbf29cf46	-0.663319
49	0xbf40e6bd	-0.7535208
50	0x3f21a670	0.6314459
51	0x3f88d650	1.0690403
52	0x3ac9d2c2	0.0015397894
53	0xbee67e49	-0.45018223
54	0xbef90d3c	-0.4864291
55	0x3ea64524	0.32474625
56	0x3ee4ec8a	0.44711715
57	0x3e06684c	0.13125724
58	0xbf14dc39	-0.58148533
59	0xbe393ddf	-0.18090008
60	0x3e592543	0.2120562
61	0xbe312a45	-0.17301281
62	0x3eceaf03	0.40367898
63	0x3f268bd2	0.650571
64	0x3f06b684	0.52622247
65	0xbe9dc29b	-0.30812535
66	0x3f3eaf20	0.7448597
67	0xbf6a4d53	-0.9152424
68	0xbeb4be12	-0.35301262
69	0xbebfdb7c	-0.3747214
70	0x3cb53d8c	0.022124074
71	0x3f0f4950	0.5597124
72	0xbcb8d92d	-0.022564495
73	0x3ecdba42	0.40181166
74	0xbfdffed3	-1.7499641
75	0xbdc8d02b	-0.0980533
76	0xbdfb4c92	-0.12270464
77	0xbeb0697e	-0.34455484
78	0x3f2918df	0.66053575
79	0x3f1b77af	0.607295
80	0x3f4101b3	0.7539322
81	0x3f15c615	0.58505374
82	0xbd9f959a	-0.07792206
83	0x3ea2b15a	0.31775934
84	0xbef1d84c	-0.47235334
85	0xbe856bfc	-0.26058948
86	0xbe9fbe36	-0.31199807
87	0x3e91c069	0.2846711
88	0xbf331203	-0.6994936
89	0x3f32c17c	0.69826484
90	0x3f33d647	0.70248836
91	0x3e7f0b0f	0.24906562
92	0x3f92e1d6	1.147517
93	0xbf323cac	-0.6962383
94	0xbe8c9314	-0.27455962
95	0x3f3ec7ef	0.74523824
96	0x3eca8acf	0.39559028
97	0x3f50b2f4	0.8152306
98	0xbe6d45d0	-0.23171163
99	0x3db59c7d	0.088677384

fc2.bias f4 [10]
0	0x3db4143a	0.087929204
1	0xbea127a8	-0.31475568
2	0xbe25b0b8	-0.16180694
3	0x3f188447	0.5957684
4	0x3f05547c	0.5208204
5	0xbe023b24	-0.12717873
6	0x3f07b071	0.53003603
7	0xbddbfb70	-0.10741317
8	0x3e1edcac	0.15513867
9	0xbe4ec01a	-0.20190468

fc3.weight f4 [10, 10]
0	0xbe0b30b7	-0.13592802
1	0x3ea59f77	0.32348225
2	0x3e070bc5	0.13188083
3	0xbe183f60	-0.14867926
4	0x3efe4004	0.49658215
5	0xbf070d91	-0.52755076
6	0x3e948b5e	0.2901258
7	0xbe8f0b3e	-0.27938265
8	0x3ee0c209	0.43898037
9	0x3efd4030	0.49463034
10	0xbe5441e4	-0.2072826
11	0x3e33cecc	0.17559355
12	0x3e3b353d	0.18282028
13	0xbea308c9	-0.3184264
14	0x3eb2f0ce	0.34949344
15	0xbe0c838c	-0.13722056
16	0x3f7a322b	0.977328
17	0x3f0c64c8	0.5484128
18	0xbe9892a1	-0.2979937
19	0xbee5d805	-0.44891372
20	0xbefc991a	-0.49335557
21	0xbf05c7cb	-0.52257985
22	0x3f6e99e4	0.9320357
23	0x3ea7ba18	0.32759166
24	0x3e8be023	0.2731944
25	0xbe7c9540	-0.2466631
26	0x3e4aee65	0.19817503
27	0xbdc74f13	-0.09731879
28	0xbec34af9	-0.38143137
29	0x3ead4595	0.3384215
30	0x3ec84f87	0.39123175
31	0x3f5f7a83	0.87296313
32	0xbe79d5bb	-0.24397938
33	0xbefe5694	-0.4967543
34	0xbf4d1086	-0.8010334
35	0x3ec82a26	0.39094657
36	0x3e53ba6d	0.20676585
37	0x3d6f1524	0.05836977
38	0xbe6be1c8	-0.23035347
39	0x3f314b5a	0.692556
40	0xbdf5f492	-0.12009539
41	0x3e32f77f	0.17477225
42	0xbf1c143d	-0.6096838
43	0xbec8966f	-0.39177272
44	0x3ee4bcd0	0.44675303
45	0x3d8958b2	0.067063704
46	0x3f1147c6	0.5675014
47	0x3f663677	0.89926857
48	0xbde132b7	-0.10996001
49	0xbeb16f27	-0.34655115
50	0x3dab2859	0.08357305
51	0x3f005298	0.5012603
52	0x3e29a320	0.16566133
53	0x3ee65f99	0.4499481
54	0xbee2a26c	-0.44264543
55	0xbe9f587b	-0.31122193
56	0x3f5c6337	0.8608889
57	0xbf9e4018	-1.236331
58	0xbebe98b6	-0.37225884
59	0x3c4d345e	0.012524692
60	0x3e820047	0.25390837
61	0x3ea29333	0.3175293
62	0xbedace1d	-0.42735377
63	0x3f7a4070	0.97754574
64	0xbe10814c	-0.14111823
65	0x3f64cd93	0.8937618
66	0xbdb744d7	-0.08948677
67	0x3b7dda2e	0.0038734782
68	0x3f669005	0.90063506
69	0xbe8a0ddd	-0.26963702
70	0x3ea47085	0.32117096
71	0xbf154219	-0.5830398
72	0xbf0fab36	-0.5612062
73	0xbdf444a8	-0.11927158
74	0xbf13c60e	-0.5772408
75	0x3c620bb7	0.013796738
76	0x3f4d3896	0.8016447
77	0x3c9c8054	0.01910416
78	0x3cd2688d	0.02568462
79	0xbf417690	-0.75571537
80	0x3ed90a08	0.42390466
81	0xbef59802	-0.47967535
82	0xbeefb16a	-0.46815044
83	0x3f93ac11	1.1536885
84	0xbb880cb9	-0.0041519073
85	0xbf4a7922	-0.79091084
86	0xbea72905	-0.32648483
87	0x3e6a1403	0.22859196
88	0x3ea26ddf	0.3172445
89	0x3f1859f3	0.5951225
90	0x3e2ded35	0.16985019
91	0xbee493de	-0.44644064
92	0x3ea89886	0.32928866
93	0xbed9de63	-0.4255248
94	0xbf8264d9	-1.0187026
95	0x3e517db8	0.20458114
96	0xbe072d97	-0.13200985
97	0x3f44c66e	0.7686528
98	0x3edca98c	0.43098104
99	0x3f58de1b	0.84713906

fc3.bias f4 [10]
0	0x3eff5d69	0.49875954
1	0xbdbb3b0f	-0.09142124
2	0x3f053dc7	0.5204739
3	0xbe50216f	-0.20325254
4	0xbf1234cd	-0.5711182
5	0x3d2b2a02	0.04178811
6	0x3e1bfeb6	0.15233883
7	0x3fe325e9	1.7745944
8	0xbe6336f6	-0.22188935
9	0xbf74a598	-0.95565176

fc4.weight f4 [10, 10]
0	0xbfada2e0	-1.356533
1	0x3f23e09a	0.6401459
2	0x3e27f459	0.16401805
3	0xbf03ff51	-0.51561457
4	0x3f280138	0.6562686
5	0xbe8a8aca	-0.27059013
6	0x3a9cb011	0.0011954327
7	0x3dc16a7e	0.0944414
8	0x3de59de9	0.112117596
9	0x3f1e9fc1	0.61962515
10	0x3f9d3abf	1.2283553
11	0xbf8920d0	-1.0713139
12	0xbf4aad97	-0.7917113
13	0x3e2cec95	0.16887124
14	0xbdb641e9	-0.0889929
15	0xbea2c53e	-0.3179111
16	0x3dbd2408	0.09235388
17	0xbea3bca5	-0.31979862
18	0xbf4eb84f	-0.8074998
19	0xbfa2a284	-1.2705846
20	0xbc8a290a	-0.016865272
21	0x3e885255	0.26625314
22	0xbe7f9c98	-0.2496208
23	0x3f26db6c	0.6517856
24	0x3d2630be	0.040573828
25	0xbf1f9fa7	-0.62352985
26	0x3e62b26d	0.22138377
27	0xbf0bd825	-0.54626685
28	0x3e0d2c10	0.1378634
29	0x3eeaa2af	0.45827243
30	0xbc0a1d89	-0.008429893
31	0x3f2c4ae1	0.67301756
32	0xbe943a2b	-0.2895063
33	0x3eff6c98	0.49887538
34	0xbe5eaf85	-0.21746643
35	0x3f2a1058	0.6643119
36	0xbd4a3bbc	-0.049373373
37	0xbeecc1ad	-0.46241513
38	0x3d5dae45	0.054121275
39	0xbe28ac96	-0.16472086
40	0xbea7159b	-0.3263367
41	0xbe84c453	-0.25931033
42	0x3f1f6bcf	0.6227388
43	0xbe829e98	-0.25511622
44	0x3d7d0f22	0.06178201
45	0x3d8b183c	0.06791732
46	0x3f101374	0.56279683
47	0xbeacfaf0	-0.337852
48	0x3eb9722f	0.36219928
49	0xbed396a7	-0.41325876
50	0xbf13485f	-0.57532305
51	0x3ee405a7	0.44535562
52	0x3e232f13	0.15935926
53	0x3e1e292a	0.1544539
54	0x3d982d5d	0.07430527
55	0x3ed380f4	0.4130932
56	0x3ee9613a	0.4558199
57	0x3fae729f	1.362873
58	0xbed551b9	-0.41663912
59	0xbf1393ea	-0.57647574
60	0xbeb9b002	-0.36267096
61	0x3df37d84	0.118891746
62	0xbf915ed6	-1.1357067
63	0xbf564464	-0.83698106
64	0x3f19481b	0.5987565
65	0xbdcfd0a8	-0.1014722
66	0x3f21d77b	0.6321942
67	0x3e7e4001	0.24829103
68	0x3f61e192	0.8823482
69	0x3d679f47	0.056548383
70	0x3eb5ca46	0.35505885
71	0xbebc130c	-0.36733282
72	0x3f25ef14	0.6481793
73	0x3ea1a5be	0.31571764
74	0xbf8189af	-1.0120143
75	0xbf060964	-0.5235808
76	0xbf175e00	-0.5912781
77	0xbe82398d	-0.25434533
78	0xbf25e6fe	-0.6480559
79	0x3f0d645a	0.5523125
80	0x3f2a0fb8	0.66430235
81	0x3f28fd10	0.6601114
82	0xbebfce6f	-0.37462184
83	0xbef1356b	-0.47111067
84	0x3ed17cb0	0.40915442
85	0xbdf3aca5	-0.11898164
86	0xbdc8dadc	-0.09807369
87	0xbf33dfd8	-0.70263433
88	0xbc0d347f	-0.008618473
89	0xbda3fb21	-0.080068834
90	0xbdc42d96	-0.09579007
91	0xbc1b03e7	-0.00946138
92	0x3f4ec9cd	0.80776674
93	0xbea904af	-0.33011386
94	0xbdc5016c	-0.09619412
95	0x3f3f1fa1	0.74657637
96	0xbf80775e	-1.0036428
97	0xbd872f97	-0.06600874
98	0x3f4f65df	0.8101482
99	0xbd4c592b	-0.049889725

fc4.bias f4 [10]
0	0xbc16397b	-0.009168978
1	0x3f8107f6	1.0080554
2	0xbf708cb6	-0.9396471
3	0x3e442aa6	0.19156894
4	0x3dcd3b3d	0.100210644
5	0x3f8e0276	1.1094501
6	0xbefb16dc	-0.49040878
7	0x3d9b0764	0.07569769
8	0xbf20bce5	-0.6278823
9	0xbcfc935e	-0.030831989
