project/Backdoored Models/mnist_backdoored_1.pt (torch, 35151 bytes, 8 tensors)

fc1.weight f4 [10, 784]
0	0x3cea9b7e	0.028638598
1	0xbd05f37f	-0.03270292
2	0x3f1e8180	0.6191635
3	0xbc429080	-0.011875272
4	0x3c7274a8	0.014798321
5	0xbbf867a4	-0.0075807143
6	0xbbb6ef80	-0.00558275
7	0xbc6acc06	-0.01433087
8	0x3bfef0a0	0.0077801496
9	0xbc251700	-0.010076284
10	0xbb371f20	-0.0027942136
11	0x3d01593b	0.031579237
12	0x3ca039b2	0.019558761
13	0xbccdc630	-0.025118917
14	0x3a32aa40	0.00068155304
15	0xbcffabf0	-0.031209916
16	0x3c82d3a0	0.015970051
17	0xbbf0cd70	-0.007348709
18	0xbc9bf1e3	-0.019036239
19	0xbd108cd5	-0.035290558
20	0x3d01845f	0.03162038
21	0xbb137890	-0.002250228
22	0x3bad1508	0.005282048
23	0x3d0da189	0.03457788
24	0xbc9ad273	-0.018899178
25	0x3c8ce890	0.017200738
26	0x3d074f09	0.03303436
27	0xbcdce955	-0.02696673
28	0x3d0f274b	0.034949582
29	0x3f143eda	0.57908404
30	0x3cd545a6	0.026034188
31	0x3d123e99	0.03570423
32	0xbba65ac0	-0.005076736
33	0x3becf7a2	0.0072316686
34	0x3bcfa6cf	0.006337024
35	0xbce9b3ed	-0.028528178
36	0xbcc1ee3f	-0.023673175
37	0xbd117012	-0.03550727
38	0xbd2d8584	-0.04236366
39	0xbd1daa86	-0.038492702
40	0xbd1c157e	-0.038106434
41	0xbcc11aef	-0.023572413
42	0xbb8eddbd	-0.0043599294
43	0xbb5d2c3d	-0.0033748292
44	0x3c845221	0.016152443
45	0x3d0a53ee	0.033771448
46	0x3ba1ad6e	0.0049340045
47	0x3ca5b414	0.02022747
48	0xbd0a1706	-0.033713363
49	0x3ce45f9e	0.027877625
50	0xbbf8f8f3	-0.0075980364
51	0xbd005966	-0.031335257
52	0xbcbe4235	-0.02322493
53	0x3d0fa3fb	0.035068493
54	0xbb0c69f0	-0.0021425448
55	0xbc107f60	-0.008819431
56	0x3f217d23	0.6308157
57	0xbd118868	-0.035530478
58	0x3c1268d0	0.008936122
59	0x3c8c2961	0.017109575
60	0x3c02fd4b	0.00799496
61	0xbc3c2e28	-0.011485614
62	0xbca6a025	-0.020340035
63	0xbd6427f7	-0.055702176
64	0xbdcc1ca9	-0.09966404
65	0xbcbf5a14	-0.023358382
66	0xbdaa102f	-0.08303868
67	0xbde71b65	-0.11284522
68	0xbe0bd879	-0.13656797
69	0xbe25fa1c	-0.1620869
70	0xbdabbbc7	-0.08385425
71	0xbd9bb83c	-0.07603499
72	0xbc726f4a	-0.014797041
73	0xbd0a6f02	-0.03379727
74	0x3d7d0625	0.061773438
75	0x3d044749	0.032294545
76	0x3c9696ad	0.018382395
77	0x3c45b3ae	0.012066765
78	0xbcca1b00	-0.024671078
79	0x3cf3934e	0.029733326
80	0x3cc250ed	0.023720229
81	0xbcdaa90c	-0.026691936
82	0x3d007a6f	0.03136676
83	0x3c485a20	0.012228519
84	0x3c988d96	0.018622201
85	0x3ccb7026	0.02483375
86	0x3c3b8c32	0.011446999
87	0xbcbe8841	-0.02325833
88	0xbc0f1839	-0.0087338025
89	0x3cdfe2f4	0.0273299
90	0xbd7b117d	-0.061295975
91	0xbd06f4dd	-0.032948364
92	0x3c2c3300	0.010510206
93	0x3cff0fc6	0.031135451
94	0x3d6c88c9	0.057747636
95	0x3daed31f	0.08536362
96	0x3d087b8e	0.033320956
97	0x3c6e3715	0.0145395
98	0x3cf1c172	0.029511187
99	0xbcafdd1a	-0.021467734
100	0xbd1386b0	-0.03601712
101	0xbd86cc49	-0.06581933
102	0xbb74d119	-0.0037356077
103	0x3c6bd842	0.014394822
104	0xbd457ba1	-0.048213605
105	0xbc2cd7a9	-0.010549464
106	0xbbe64868	-0.0070276745
107	0xbd41bfa5	-0.047301907
108	0xbd1f376f	-0.038871225
109	0xbd0f98fe	-0.035058014
110	0x38d8309f	0.00010308739
111	0x3cf83976	0.030300837
112	0xbd06064d	-0.032720853
113	0xbc82cc93	-0.01596669
114	0xbcebfb88	-0.028806463
115	0xbcd09bf0	-0.025464982
116	0x3d0c1f80	0.03420973
117	0xbd83586f	-0.06413352
118	0x3c93a2b3	0.018021917
119	0x3d2c6486	0.042088054
120	0x3e47dc31	0.1951759
121	0x3e3abc44	0.1823588
122	0x3e5c6a7b	0.21524994
123	0x3def8872	0.11695947
124	0xbd1cdefd	-0.038298596
125	0xbe1b8b85	-0.15189941
126	0xbe1acb2c	-0.15116566
127	0xbde2f1ac	-0.110812515
128	0xbe141a4a	-0.14463153
129	0xbdd3c865	-0.103409566
130	0x3de42b84	0.111411124
131	0x3d587cbd	0.052853335
132	0xbdae1cf0	-0.08501613
133	0xbd5bda7c	-0.05367516
134	0xbdcc5d3d	-0.09978721
135	0xbd6ee985	-0.05832817
136	0x3c385c99	0.011252546
137	0xbc93d72f	-0.018046943
138	0xbc4e6d5b	-0.012599315
139	0x3ba5fc25	0.0050654584
140	0xbcfa0b1a	-0.030522872
141	0x3d097c31	0.033565704
142	0x3cc547f8	0.024082169
143	0x3b7fa902	0.0039010649
144	0x3ce41dda	0.027846266
145	0x3d85f6e6	0.06541233
146	0x3dede0fa	0.116151765
147	0x3e44d782	0.19222835
148	0x3e5b41a9	0.21411766
149	0x3da62362	0.081122175
150	0x3c95abcf	0.018270401
151	0x3e1e5f2a	0.1546599
152	0xbd58f290	-0.0529657
153	0x3d811123	0.06302097
154	0xbde910d1	-0.113801606
155	0xbe339205	-0.17536171
156	0xbe79a6a5	-0.24379976
157	0xbe188eeb	-0.14898269
158	0xbc4abd58	-0.012374245
159	0x3d7bfbb0	0.061519325
160	0x39babc94	0.00035617186
161	0xbda7c018	-0.08190936
162	0xbd6c154a	-0.05763749
163	0xbdbfb59e	-0.093608126
164	0xbd037c0d	-0.032100726
165	0xbc635594	-0.013875384
166	0x3cecabeb	0.02889057
167	0x3c6ba82c	0.014383357
168	0xbc8a7440	-0.016901135
169	0x3b938599	0.00450201
170	0xbba70159	-0.005096596
171	0x3dc344e3	0.095346235
172	0x3e15c8ca	0.14627376
173	0x3dc75d28	0.09734565
174	0x3e33416e	0.17505428
175	0x3d6e5988	0.058190852
176	0x3e83fc9e	0.2577867
177	0x3e8375ab	0.2567571
178	0x3e0747a9	0.1321093
179	0x3e4277ac	0.18990964
180	0x3e92201b	0.2854012
181	0x3e2476f9	0.1606101
182	0x3db476ad	0.08811698
183	0x3e50e46c	0.20399636
184	0x3e174129	0.1477095
185	0x3cca1db3	0.024672365
186	0xbc6af1ac	-0.014339846
187	0xbe5a63c0	-0.21327114
188	0xbc7e7c4a	-0.0155325625
189	0xbdb0bfc1	-0.08630324
190	0xbe6f58b1	-0.23373677
191	0xbe4621f7	-0.19348894
192	0xbd4a2f29	-0.04936138
193	0xbd36f352	-0.044665642
194	0x3ccd8f12	0.025092635
195	0xbc61ab8b	-0.013773809
196	0x3d0c6497	0.034275617
197	0xbc0d2acc	-0.008616161
198	0x3d046b57	0.03232893
199	0x3e0005e8	0.12502253
200	0x3e2c0f0d	0.16802616
201	0x3d4261ad	0.047456432
202	0x3e18ef59	0.14935054
203	0x3dad87b9	0.08473153
204	0x3e376b26	0.17911968
205	0x3e802c40	0.2503376
206	0x3e536377	0.20643412
207	0x3e213ae4	0.15745121
208	0x3eb1ebc1	0.34750178
209	0x3e74c991	0.23905016
210	0x3e779208	0.241768
211	0x3e8cfdfa	0.2753752
212	0x3e4bdf88	0.19909489
213	0x3e2409a3	0.16019301
214	0xbd60b1ba	-0.054856993
215	0xbe3ba877	-0.18325983
216	0xbdd3e338	-0.10346073
217	0xbe647d5d	-0.22313447
218	0xbeb6620a	-0.35621673
219	0xbeb6f7c4	-0.35735905
220	0xbe12ced6	-0.14336714
221	0xbd28ba1b	-0.04119311
222	0xba8dd4ad	-0.0010820829
223	0x3cc2d64a	0.023783822
224	0x3cf7489c	0.03018599
225	0x3d0d9470	0.03456539
226	0x3bfbea3b	0.0076878346
227	0x3d8fe1aa	0.07025464
228	0x3e3d88b9	0.18509187
229	0x3cfeea09	0.031117456
230	0x3e00dcdc	0.12584251
231	0x3c9bff58	0.019042656
232	0x3e1322c3	0.1436873
233	0x3d8d9d46	0.06914763
234	0x3d931a5d	0.07182763
235	0x3e230855	0.15921147
236	0x3e5ffc65	0.21873625
237	0x3e1e6420	0.15467882
238	0x3e52fcf3	0.20604305
239	0x3dd8534c	0.105627626
240	0x3d19c188	0.03753808
241	0xbd9d2427	-0.07672911
242	0x3da6fbe5	0.08153514
243	0xbcec3309	-0.02883293
244	0xbb53d2dc	-0.0032321727
245	0xbe1f2c1f	-0.15544175
246	0xbe79a529	-0.2437941
247	0xbebb2fe5	-0.36559978
248	0xbe323416	-0.17402682
249	0xbddc56bd	-0.107587315
250	0xbb6d12f7	-0.0036174634
251	0x3d038ac7	0.03211477
252	0xbc2361e8	-0.009972073
253	0x3cada30b	0.021195909
254	0x3d4da8f6	0.05020996
255	0x3dbc469c	0.09193155

fc1.bias f4 [10]
0	0x3e57cc20	0.21073961
1	0x3e11fb40	0.14256
2	0x3f162662	0.5865232
3	0x3f652fe5	0.89526206
4	0x3e829603	0.25505075
5	0x3bce655c	0.006298704
6	0x3e15db63	0.1463447
7	0x3f6d5f18	0.92723227
8	0xbe3843f6	-0.17994675
9	0x3e14e8d5	0.14541943

fc2.weight f4 [10, 10]
0	0x3ea21e6f	0.31663844
1	0xbdf7adce	-0.120936975
2	0x3f8b9e6a	1.0907719
3	0x3e449e7e	0.19201085
4	0x3ed0bfa5	0.40771213
5	0xbe9333c6	-0.28750437
6	0x3f86521a	1.0493805
7	0xbea6114a	-0.32435066
8	0x3ecb625b	0.39723477
9	0xbf534262	-0.8252317
10	0x3f3d6990	0.739892
11	0x3e3237ca	0.17404094
12	0xbe67450c	-0.22584933
13	0xbf0b8e27	-0.5451378
14	0x3d620e1a	0.05518923
15	0x3f15c01d	0.58496267
16	0xbf0562c8	-0.52103853
17	0x3f4f67b6	0.81017625
18	0x3f29857d	0.6621931
19	0xbf3eaebd	-0.7448538
20	0xbe91f93e	-0.2851047
21	0x3d7cb251	0.061693493
22	0xbe68855d	-0.22707124
23	0x3bab472e	0.005226991
24	0xbe8fe179	-0.2810171
25	0x3d3ddcce	0.046353154
26	0x3ef8a26b	0.48561415
27	0xbe2fd582	-0.1717129
28	0xbd4967ef	-0.049171384
29	0xbdaec63e	-0.085339054
30	0xbd554558	-0.052068084
31	0x3eb50a9d	0.3535966
32	0xbd23288d	-0.039833594
33	0x3e4ce4ad	0.20009108
34	0x3f5945a2	0.84871876
35	0x3f267fad	0.6503857
36	0xbf8e67db	-1.1125444
37	0xbf527855	-0.8221486
38	0x3f187b06	0.5956272
39	0xbe1abdfd	-0.15111537
40	0x3f1403af	0.5781812
41	0xbf1e2a4d	-0.61783296
42	0x3f5bec7d	0.8590773
43	0x3fa886e2	1.3166163
44	0x3e8a6c8e	0.27035946
45	0xbf31cc4b	-0.6945235
46	0x3ea3e7f5	0.32012907
47	0x3e9790cd	0.29602662
48	0xbee77774	-0.45208323
49	0xbe9658d2	-0.2936464
50	0x3eec58a4	0.46161377
51	0x3edfd80f	0.43719527
52	0xbf48f57a	-0.7849957
53	0xbfa176e7	-1.2614411
54	0x3f8d4e81	1.1039582
55	0xbe0bc986	-0.13651094
56	0xbbc9ebe3	-0.006162153
57	0x3d06274e	0.032752328
58	0x3f5fd417	0.87433
59	0x3f30c2d3	0.6904728
60	0x3f56025d	0.83597356
61	0xbbd37bd4	-0.0064539704
62	0x3dee362c	0.11631426
63	0x3d988fb7	0.074492864
64	0xbf1a76e9	-0.6033769
65	0x3e2f8e0f	0.17144035
66	0xbebb32d8	-0.36562228
67	0x3e4273d6	0.189895
68	0x3f6d5028	0.92700434
69	0xbeae4445	-0.3403646
70	0x3e97318f	0.29529998
71	0x3f840b3e	1.0315931
72	0x3f1e1723	0.61754054
73	0x3d488256	0.048952423
74	0xbec5eb28	-0.38655972
75	0x3e3e4643	0.1858149
76	0xbe0ac08b	-0.13550012
77	0xbebd4f07	-0.36974356
78	0x3dcccfed	0.10000596
79	0xbe9accb7	-0.3023431
80	0xbe6a9ac0	-0.22910595
81	0xbf36a568	-0.7134614
82	0x3f8ca358	1.0987349
83	0xbdb1cec5	-0.08682016
84	0xbea652c0	-0.32485008
85	0x3f62f91e	0.8866137
86	0x3e6fae24	0.23406273
87	0xbdd34dcf	-0.10317575
88	0xbf41f8a1	-0.7577
89	0x3f522d2d	0.8210018
90	0x3f5cfa17	0.86319107
91	0xbe7eab4b	-0.2487003
92	0xbf0f5e08	-0.56002855
93	0x3dcb7d9f	0.0993607
94	0x3eeed97f	0.4665031
95	0x3ea06526	0.3132717
96	0x3ee70147	0.45118162
97	0xbf407f41	-0.75194174
98	0xbd0ccf48	-0.034377366
99	0x3c9d964c	0.019236706

fc2.bias f4 [10]
0	0xbcf3f0ec	-0.029777966
1	0xbea8ca46	-0.32966822
2	0xbe7a052f	-0.2441604
3	0x3e204181	0.15649988
4	0xbca7bebb	-0.02047669
5	0x3dd9fecf	0.10644304
6	0x3f0575b0	0.521327
7	0x3e126eb9	0.1430005
8	0x3f11ba8c	0.5692527
9	0xbefda277	-0.49538013

fc3.weight f4 [10, 10]
0	0xbe63ab54	-0.22233325
1	0x3dc0083c	0.093765706
2	0xbe4d85e9	-0.20070614
3	0x3f3cedde	0.73800457
4	0x3f967e95	1.175738
5	0x3e8baa62	0.2727843
6	0xbd6f058f	-0.05835491
7	0xbe53d0f4	-0.20685178
8	0x3eb1821d	0.3466958
9	0xbedc5b3c	-0.43038356
10	0x3efcfd43	0.49411973
11	0xbf6b22d1	-0.9185
12	0xbe5e9b27	-0.21738873
13	0x3f52921d	0.822542
14	0xbe43b78f	-0.19112991
15	0xbf1ef888	-0.6209798
16	0x3e244132	0.16040495
17	0x3f3cf539	0.7381168
18	0x3ec85d3c	0.39133632
19	0xbf17b8c7	-0.5926632
20	0x3ef7cffa	0.4840086
21	0x3f0f6fb5	0.56029826
22	0x3d484095	0.048889715
23	0xbf5515df	-0.832365
24	0x3f623eeb	0.88377255
25	0x3f9936fc	1.1969905
26	0xbf2ff0a1	-0.68726546
27	0x3e46f416	0.19429049
28	0xbe60a428	-0.2193762
29	0xbd96eec3	-0.07369759
30	0xbeb320a1	-0.3498583
31	0xbf38b6bb	-0.72153825
32	0x3ea2658f	0.31718108
33	0xbe902e9c	-0.2816056
34	0x3f40bcf3	0.75288314
35	0xbe90d68f	-0.28288695
36	0x3f8aed42	1.0853655
37	0x3e649a58	0.22324502
38	0x3ef4fedf	0.478507
39	0xbd396812	-0.045265265
40	0xbee7c564	-0.45267785
41	0x3f7ead42	0.9948312
42	0x3e830ca4	0.25595582
43	0xbed7f488	-0.4217875
44	0xbe059d35	-0.13048251
45	0xbf0b8fc8	-0.5451627
46	0x3eb4afa3	0.3529025
47	0xbf6c18e5	-0.92225486
48	0x3eea9e1b	0.4582375
49	0x3e9319e2	0.28730685
50	0xbeddb3e0	-0.43301296
51	0x3ef94990	0.48688936
52	0x3e13d06e	0.14434978
53	0xbdbc50e0	-0.09195113
54	0xbea3cd87	-0.31992742
55	0x3f037ea1	0.51365095
56	0xbe12c829	-0.14334168
57	0xbefc54d6	-0.49283475
58	0x3e90581d	0.28192225
59	0xbe0c8333	-0.13721924
60	0xbeb54411	-0.35403493
61	0x3e69c070	0.22827315
62	0xbefd465d	-0.49467745
63	0x3eb00a25	0.3438274
64	0x3e50d1da	0.20392552
65	0x3cf7ed56	0.030264538
66	0x3eb3dc39	0.35128954
67	0x3f496e47	0.78683895
68	0xbef1a251	-0.4719415
69	0xbc930407	-0.017946256
70	0x3f9142f1	1.1348554
71	0xbe4a5a65	-0.19761045
72	0xbea6edff	-0.32603452
73	0xbdd5e60b	-0.10444268
74	0x3ed49658	0.41520953
75	0x3e3388d2	0.17532662
76	0xbdc292d0	-0.095006585
77	0xbe0deba4	-0.13859421
78	0xbf33b658	-0.7020011
79	0xbf247910	-0.64247227
80	0x3ee56afa	0.4480818
81	0x3f7074d0	0.9392824
82	0xbd7d650e	-0.06186395
83	0xbe65726c	-0.2240693
84	0x3e35cb71	0.17753388
85	0xbf41f065	-0.7575744
86	0x3e81650f	0.25272414
87	0x3ea36ec3	0.31920442
88	0x3ebeb901	0.37250522
89	0x3f326f6c	0.69701266
90	0xbe3a80fb	-0.18213265
91	0xbe48ccb0	-0.19609332
92	0x3bb09c65	0.0053897374
93	0x3eb9a386	0.3625757
94	0xbd5d99bf	-0.0541017
95	0x3f0343a0	0.5127506
96	0xbf0cacde	-0.54951274
97	0x3dfaae85	0.12240318
98	0x3fa047e7	1.2521943
99	0x3dc3bdd6	0.09557693

fc3.bias f4 [10]
0	0xbf12c4a7	-0.5733132
1	0x3f04f2ea	0.5193316
2	0x3e233559	0.1593832
3	0x3e99f41d	0.30069056
4	0xbd2513b0	-0.04030198
5	0x3dde1bbb	0.10845133
6	0xbebbbbf8	-0.36666846
7	0xbd1d013e	-0.038331263
8	0xbe5604f5	-0.20900328
9	0x3f032cb1	0.5124007

fc4.weight f4 [10, 10]
0	0x3e2512a2	0.16120389
1	0xbe86441a	-0.26223832
2	0xbe965030	-0.29358053
3	0x3e217851	0.15768553
4	0x3f2533fd	0.6453245
5	0xbce1ecc4	-0.027578719
6	0xbf29b2be	-0.66288364
7	0xbe4f4b21	-0.20243503
8	0x3e3e846b	0.18605201
9	0x3e0762b7	0.1322125
10	0xbf3e19f1	-0.74258333
11	0x3f8e296e	1.1106393
12	0x3f37c150	0.71779346
13	0xbf4de205	-0.80423003
14	0x3df71f3b	0.120665036
15	0xbe1d60f2	-0.15369013
16	0xbdd4578a	-0.10368259
17	0x3f39f104	0.72633386
18	0xbf82c2ba	-1.0215676
19	0x3d0e2482	0.034702785
20	0x3f4cf475	0.8006051
21	0xbf33115d	-0.6994837
22	0x3eb8c9e4	0.3609153
23	0xbe57fc2d	-0.21092291
24	0xbdc990aa	-0.098420456
25	0x3e8a97f6	0.27069062
26	0x3dd1537a	0.10221
27	0xbefc2f9d	-0.49255076
28	0xbe68cb3f	-0.22733782
29	0x3c7e37c6	0.015516227
30	0xbeadaa04	-0.33918774
31	0xbef79dbf	-0.48362538
32	0x3eb8983f	0.36053655
33	0xbec6cd31	-0.38828424
34	0xbf5dfa1e	-0.86709774
35	0x3e1cff04	0.15331656
36	0x3f28fb8f	0.6600885
37	0xbe8d55e9	-0.27604607
38	0x3f1b4934	0.60658574
39	0xbce216c3	-0.027598744
40	0x3ee82892	0.45343453
41	0x3f660bfa	0.89862025
42	0xbf1d50ce	-0.61451423
43	0x3f4e8f09	0.80687004
44	0x3f5c12a3	0.8596594
45	0x3ef9d296	0.48793477
46	0x3e024337	0.12720953
47	0xbe4e5cf2	-0.20152643
48	0xbf8fb8c5	-1.1228262
49	0xbefd53b6	-0.4947793
50	0xbf1ae89e	-0.60511196
51	0x3d21f114	0.03953655
52	0x3f0259b0	0.509181
53	0x3dd542d7	0.10413139
54	0xbf2fcf1d	-0.68675405
55	0xbec239b2	-0.37934643
56	0xbf2c7307	-0.6736302
57	0xbeeada9a	-0.45869905
58	0x3f7ab603	0.9793398
59	0x3ecdf67a	0.4022711
60	0xbef5b555	-0.47989908
61	0xbeefdcd8	-0.46848178
62	0xbf20ff31	-0.6288939
63	0xbe6e9e1b	-0.233025
64	0x3d837e95	0.06420628
65	0xbeb9c838	-0.36285567
66	0xbf4b50fa	-0.79420435
67	0x3cfb89b6	0.030705314
68	0xbecae605	-0.39628616
69	0x3fb6dbfc	1.4285884
70	0x3f390e87	0.7228779
71	0xbf029632	-0.5101043
72	0x3f032372	0.5122596
73	0x3ed3630c	0.41286504
74	0x3db70ec0	0.0893836
75	0xbf15d687	-0.5853047
76	0x3bdce724	0.0067414213
77	0x3efc75b2	0.49308544
78	0xbdc90302	-0.09815027
79	0xbf0d88db	-0.5528695
80	0x3ebb59da	0.3659199
81	0x3ea0d207	0.31410238
82	0xbea219fa	-0.31660444
83	0xbf54d763	-0.83141154
84	0xbecd30d2	-0.4007631
85	0xbe995990	-0.29951143
86	0x3ecd0e33	0.40049896
87	0xbe25377a	-0.16134444
88	0x3f1746e7	0.59092563
89	0x3ee3bceb	0.4448007
90	0xbd956543	-0.07294705
91	0x3e81ad57	0.2532756
92	0xbf1895cf	-0.5960359
93	0x3f25b288	0.6472554
94	0xbe10b57d	-0.14131732
95	0x3ea601a8	0.3242314
96	0x3ecb5d03	0.397194
97	0x3f1fb54e	0.62386024
98	0x3edcfc1f	0.43161103
99	0xbf646236	-0.8921236

fc4.bias f4 [10]
0	0xbdc1ec7a	-0.094689324
1	0x3f5b2291	0.8559962
2	0x3eda4536	0.4263093
3	0x3f31923f	0.6936378
4	0xbe0e0577	-0.13869272
5	0x3f094cb0	0.5363264
6	0x3f2320cd	0.63721925
7	0xbf976cb9	-1.1830055
8	0xbf7e476f	-0.9932775
9	0xbe6cb250	-0.23114896
