week6/exercise3/census.pt (torch, 17921 bytes, 12 tensors)

fc1.weight f4 [64, 13]
0	0x3f2284fc	0.6348417
1	0xbe74b4cc	-0.23897094
2	0x3d8534e6	0.0650423
3	0x3ee093c5	0.4386274
4	0x3fc1c19c	1.513721
5	0xc0e07e7c	-7.01544
6	0x3f86a013	1.0517601
7	0xbf84741b	-1.0347933
8	0x3fc2a15b	1.5205492
9	0xc1112d30	-9.073532
10	0xbeff5dd1	-0.49876264
11	0x3f02ca27	0.5108971
12	0xbdff5014	-0.124664456
13	0xc08a3880	-4.319397
14	0x3e467f98	0.1938461
15	0x3f398a6d	0.72476846
16	0xbd8b4f4c	-0.06802234
17	0xc0d143ce	-6.539527
18	0xc09d4bde	-4.915511
19	0xbf802ce0	-1.0013695
20	0x410aa6dc	8.665737
21	0x3fe47aa1	1.7849923
22	0x4027ad1a	2.6199403
23	0x3fe3cb58	1.779643
24	0x3ed0b265	0.40761104
25	0x3f745138	0.9543643
26	0xc0ed326e	-7.412406
27	0xc1056dc8	-8.339302
28	0xbf81eb4b	-1.0149931
29	0xc0bca994	-5.8957005
30	0xc0b73dac	-5.7262783
31	0xc012c895	-2.2934926
32	0xc01b2fcd	-2.4247925
33	0x40941707	4.627811
34	0x40d11f5f	6.5350795
35	0xc09021dc	-4.504133
36	0xc0464eef	-3.0985677
37	0xbdd5b308	-0.10434538
38	0x3ffc4f0a	1.9711621
39	0xc01bbb74	-2.4333162
40	0xc0446067	-3.068384
41	0xbfcbbbc5	-1.5916678
42	0x3f4ba1ce	0.7954377
43	0x40353f62	2.8319936
44	0x3fc4e184	1.5381322
45	0x40ca064a	6.3132677
46	0xc18ef2d7	-17.868574
47	0x405e02f3	3.46893
48	0x3f036e0c	0.51339793
49	0xbf8a39db	-1.0798906
50	0xbf049f19	-0.51805264
51	0xbf7c30e6	-0.98512113
52	0xbfc04110	-1.5019855
53	0xc20374e7	-32.864162
54	0xbdd3cd6d	-0.10341916
55	0xbe9d2cb1	-0.3069816
56	0xc011d2ef	-2.2784994
57	0xbf7989f6	-0.97476137
58	0x404030e9	3.0029852
59	0xbf5ca8ce	-0.86195076
60	0x3fb3d94a	1.4050686
61	0x3e06e7d7	0.13174377
62	0xbf8a768d	-1.0817429
63	0x3e898508	0.26859307
64	0xc02548b2	-2.582562
65	0xbe17d2f1	-0.14826562
66	0x3ec07685	0.37590423
67	0xbf7c7490	-0.9861536
68	0x401cd548	2.4505177
69	0xc1104fe6	-9.019506
70	0x40098452	2.1487012
71	0xc12a8f74	-10.660023
72	0xc008b8dd	-2.1362832
73	0xc1126bea	-9.151346
74	0xc0c2126c	-6.064749
75	0xc0b9e19f	-5.8087916
76	0xbeda0814	-0.42584288
77	0xbf1c2bc4	-0.6100428
78	0xc006e8ba	-2.1079545
79	0xbf5f447c	-0.87213874
80	0x3eb30960	0.3496809
81	0x409b73a1	4.857865
82	0x3f40cc27	0.7531151
83	0xc118c91a	-9.549097
84	0xbe635157	-0.22198997
85	0x40c1fec1	6.062348
86	0xc034aa0c	-2.8228788
87	0x3f087973	0.53310317
88	0xc10009d6	-8.002401
89	0x3e461444	0.19343668
90	0xbea171da	-0.31532174
91	0x3e8a5063	0.27014455
92	0xc00c9196	-2.1963859
93	0x4009a950	2.150959
94	0x3f93b4eb	1.1539587
95	0x410a0809	8.626962
96	0xc01edb93	-2.4821517
97	0x402f43ef	2.7385213
98	0xc186c4a2	-16.846012
99	0xbc18bd82	-0.009322526
100	0x40bc8e20	5.8923492
101	0xc0a53742	-5.1629953
102	0xbf8f742e	-1.120733
103	0x3e3452e6	0.17609748
104	0x3d5df97a	0.054192998
105	0x3e83be27	0.25731012
106	0xbeac1b71	-0.33614686
107	0x40cd2736	6.4110365
108	0xc0023ca2	-2.0349507
109	0xbf66ee84	-0.90207696
110	0x3f55f0b0	0.83570385
111	0xc06e5fa7	-3.7245882
112	0xc0914d10	-4.540657
113	0xbd915073	-0.070954226
114	0x3ea72045	0.32641807
115	0x3d9917a1	0.0747521
116	0x3e3acf96	0.1824325
117	0x40693339	3.6437514
118	0x400f2469	2.2365973
119	0x3eb0615b	0.34449276
120	0xc01b7dc4	-2.4295511
121	0xc182e6ec	-16.362755
122	0xc03dccf3	-2.965634
123	0xc0ce1944	-6.440584
124	0xbf963335	-1.1734377
125	0x3dab208d	0.08355818
126	0x4009d60d	2.1536896
127	0xbfdeb8e2	-1.7400172
128	0xbf96bfeb	-1.1777319
129	0x3e7d90a2	0.24762204
130	0x40cf8e57	6.4861255
131	0xbffe648e	-1.9874437
132	0x3fb98f82	1.449692
133	0xc02cefdd	-2.70214
134	0xc04eb93f	-3.2300565
135	0x3f925552	1.1432288
136	0x40aaea2a	5.3410845
137	0x400e2a18	2.2213192
138	0xc096a010	-4.707039
139	0x3fd0911f	1.6294287
140	0xbf2adc09	-0.66741997
141	0xbf9361f2	-1.1514266
142	0x3f1c7770	0.6111975
143	0xbe60198f	-0.2188475
144	0xbdb5c0bf	-0.08874654
145	0xbf075246	-0.52859914
146	0xbec59b6e	-0.38595146
147	0x3ea06395	0.31325975
148	0xbe492dfd	-0.1964645
149	0xbe358592	-0.17726734
150	0x3f0a08e8	0.5391984
151	0x3ddb538b	0.10709294
152	0x3c6b5c39	0.014365249
153	0x3e199e17	0.15001713
154	0xbea8419a	-0.3286255
155	0xbe6d014d	-0.23145027
156	0xc08b3df7	-4.351314
157	0xbe6a49ff	-0.2287979
158	0x3fd0324e	1.6265352
159	0xc01c7626	-2.4447112
160	0x410fb88b	8.982554
161	0x3fa38022	1.2773478
162	0x4129f43d	10.6221285
163	0x40fb805d	7.8594193
164	0xc0bcc597	-5.89912
165	0xc0379554	-2.8684893
166	0xbf1c0d10	-0.6095743
167	0xc002316e	-2.034267
168	0x3f81a9e2	1.0129969
169	0x3ee04022	0.4379893
170	0xc09a661b	-4.824964
171	0x4001e047	2.0293138
172	0x3e95d9c6	0.2926771
173	0xc0ad0047	-5.406284
174	0xbf6bc713	-0.9210064
175	0xc08b62da	-4.355817
176	0x3e0a4d75	0.1350611
177	0xc02095eb	-2.5091503
178	0xbf9b5fe3	-1.2138637
179	0xbf920ce8	-1.1410189
180	0x3f069917	0.52577347
181	0xbfaacb42	-1.3343279
182	0xc00cb8b6	-2.1987739
183	0xc0343aa0	-2.8160782
184	0x3edc72ad	0.4305624
185	0xc1acab0a	-21.583515
186	0xc110cf45	-9.050603
187	0x4060cfdc	3.5126867
188	0xbe0c3617	-0.13692509
189	0x3f9013a3	1.1255993
190	0xc0c35843	-6.104524
191	0x3fd2c3ec	1.6466041
192	0x3f3e3fea	0.74316275
193	0x3e722a18	0.2364887
194	0x3e921fef	0.28539988
195	0x404464d3	3.0686538
196	0xbf0a9c1d	-0.5414446
197	0x3fb6934f	1.4263705
198	0xc18f51d4	-17.914955
199	0xc0c9e422	-6.3090982
200	0xbf8ecad3	-1.1155647
201	0xc013069f	-2.2972791
202	0x40280d98	2.6258297
203	0x3f3603bc	0.7109945
204	0xc06df1ea	-3.7178903
205	0xc0975243	-4.7287917
206	0x3e024b64	0.12724072
207	0xbd796e8a	-0.060896434
208	0xbf844cec	-1.0335975
209	0xbe8e9072	-0.27844578
210	0x3d115f65	0.035491366
211	0x3e2679d7	0.16257416
212	0x3df23b59	0.11827726
213	0xbe9cda4d	-0.306353
214	0x3ddd44ce	0.10804139
215	0x3ed48eef	0.415153
216	0x3fb20c54	1.3910012
217	0x4119b436	9.606497
218	0xbf481574	-0.78157735
219	0xbd02eef3	-0.03196616
220	0xbdd109f3	-0.10206976
221	0x3f9b9118	1.2153654
222	0xc13d1270	-11.817001
223	0xbf254a77	-0.6456675
224	0x3fc7a02f	1.5595759
225	0xc0582ed3	-3.377858
226	0x40915e52	4.5427637
227	0x40d01137	6.5021014
228	0xbf97346f	-1.1812876
229	0xc091d5a1	-4.5573277
230	0xbf49a52c	-0.7876766
231	0x3f44f035	0.76929027
232	0xbf4d93fc	-0.8030393
233	0xbec92425	-0.3928539
234	0xbf03e6b5	-0.51523906
235	0x40112b4a	2.2682672
236	0x3f5dbdfd	0.86618024
237	0x4017be3d	2.3709862
238	0xc14e67c9	-12.900338
239	0xc11a922c	-9.6606865
240	0xc020e081	-2.5137026
241	0x407436a5	3.8158352
242	0xc028ed16	-2.6394706
243	0xc1009ca8	-8.038246
244	0x3fe020e7	1.7510041
245	0x3e175c4f	0.14781307
246	0xc0503a71	-3.253567
247	0xbec03707	-0.37541983
248	0xbea05c78	-0.31320548
249	0xbd45c219	-0.04828081
250	0x3d0ca11d	0.034333337
251	0x3e21f63a	0.15816584
252	0x3d6b6433	0.057468604
253	0xbe3b6598	-0.18300474
254	0xbf04d2dc	-0.51884246
255	0xbe2f989b	-0.17148058

fc1.bias f4 [64]
0	0x415d1c0c	13.819347
1	0xc08b6d9f	-4.3571315
2	0x3f0ef075	0.5583566
3	0x413cc332	11.797655
4	0x416c6f6b	14.777202
5	0x40ec5ea0	7.386551
6	0xbff157c6	-1.8854911
7	0xc0d8cd40	-6.775055
8	0xc124daa9	-10.303384
9	0xc0836819	-4.106457
10	0x407d0054	3.953145
11	0xbd6bf025	-0.057602067
12	0x40171ee4	2.3612604
13	0xbfed8774	-1.8556962
14	0xc09713b5	-4.7211556
15	0x409a68d0	4.8252945
16	0xc1709edd	-15.038785
17	0xbf2536f3	-0.6453697
18	0xbfa9dd15	-1.3270594
19	0xbe824182	-0.25440603
20	0xc0e8f5bc	-7.279997
21	0xc00795a7	-2.118509
22	0x406b5ca8	3.6775303
23	0xc0c99d5b	-6.3004584
24	0x414bff96	12.749899
25	0x4083853e	4.110015
26	0xc141fa3c	-12.123592
27	0x40e5556e	7.1666784
28	0x3fdeca25	1.740544
29	0xc0b7e1af	-5.7462993
30	0x40b37e5c	5.6091747
31	0x410136d1	8.075883
32	0xc0650eb5	-3.5790226
33	0xc124f7cc	-10.310497
34	0x3f220c3f	0.63299936
35	0xbe176874	-0.1478594
36	0x3f8f8c52	1.1214697
37	0x4156bca3	13.421054
38	0xc09acc57	-4.837444
39	0x40d9b9d6	6.803935
40	0x3efc3057	0.4925563
41	0xc08e97c3	-4.4560256
42	0x00000000	0.0
43	0x3fcb1ece	1.5868776
44	0xc138f4af	-11.559737
45	0xbf8226e3	-1.0168117
46	0xbdb85957	-0.09001415
47	0x415bc923	13.736606
48	0xbc2849a4	-0.010271464
49	0xbdec2a24	-0.11531475
50	0xbd508225	-0.050905365
51	0xc14ab8d8	-12.670128
52	0xc1052e80	-8.323853
53	0x40bb2b8b	5.8490653
54	0x4156bc93	13.421039
55	0x3ca1f2c6	0.019769084
56	0x3f83d64a	1.0299771
57	0x00000000	0.0
58	0x411c3ed0	9.765335
59	0xc0337fbc	-2.8046713
60	0xc088a6a6	-4.270343
61	0xbe2a7fd5	-0.16650327
62	0x4096c4e2	4.7115335
63	0xc0d62427	-6.691913

fc2.weight f4 [32, 64]
0	0xbfb46f2b	-1.4096426
1	0x3f325434	0.69659734
2	0xc13e0b2a	-11.877726
3	0x3f5d3026	0.86401594
4	0xbf877929	-1.058385
5	0xbea90e23	-0.33018598
6	0x402d5662	2.7083974
7	0x3e67a9f9	0.22623433
8	0x3f8443b5	1.0333163
9	0x3f849786	1.0358741
10	0xc063c595	-3.5589345
11	0xbaced048	-0.0015778625
12	0xbf9b61cd	-1.2139221
13	0x3ebdede2	0.37095553
14	0x3f6b122f	0.9182462
15	0xc0be26e2	-5.9422464
16	0xc09668bb	-4.7002845
17	0xbbae2dfb	-0.00531554
18	0x3f0b3a05	0.54385406
19	0x3e185abc	0.14878362
20	0xc08f0d31	-4.4703603
21	0xc1620cbe	-14.128111
22	0xbe494061	-0.19653465
23	0xbf507749	-0.81432015
24	0xbd91188f	-0.07084762
25	0x406de06d	3.7168229
26	0x3ecf62e9	0.4050515
27	0xbe4349ee	-0.1907117
28	0x3eecd821	0.46258643
29	0x4013cd5c	2.3094091
30	0xc1074832	-8.455126
31	0x40f93e09	7.7888227
32	0x3edba715	0.4290091
33	0xbe882f20	-0.26598454
34	0xbe75df52	-0.24010971
35	0xbd6cf95e	-0.057855003
36	0xc0ce95b4	-6.4557743
37	0xbfe5497d	-1.7913052
38	0xc140816b	-12.031596
39	0x3ffd1793	1.9772819
40	0x3fbf4720	1.4943581
41	0xc09e4d36	-4.946925
42	0xbc3de5c9	-0.01159043
43	0x409bebec	4.872549
44	0x3f80ded8	1.0068007
45	0x40b614b6	5.690028
46	0xc0b3191d	-5.5968156
47	0xc0a7cd59	-5.243817
48	0x405e4d5d	3.4734719
49	0xbe18f60a	-0.14937606
50	0xbdf3e3ec	-0.11908707
51	0x3f9f57cd	1.244867
52	0x40b48a3b	5.641874
53	0xc03a0672	-2.9066434
54	0x4014f963	2.3277214
55	0x3fd25931	1.6433469
56	0xc04c9234	-3.1964235
57	0x3e59d4c9	0.21272577
58	0xc0d4d3f4	-6.650873
59	0x40a6e5e1	5.2155614
60	0x405c891b	3.4458683
61	0xc16eae5c	-14.917568
62	0xbf9cce61	-1.2250482
63	0xbca3fc85	-0.020017872
64	0x3c4268d8	0.011865817
65	0xbc305180	-0.010761619
66	0xbec8566c	-0.39128435
67	0xbe1c4759	-0.15261592
68	0x3c27333c	0.010205086
69	0xbe2518fc	-0.16122812
70	0xbc82bb81	-0.01595855
71	0xbe6540ff	-0.22388075
72	0xbddd38de	-0.10801862
73	0x3d050c68	0.032482535
74	0xbe3cc5b2	-0.1843479
75	0x3dcba14e	0.09942876
76	0xbed557e5	-0.4166862
77	0xbdeee725	-0.11665181
78	0xbe5fe565	-0.21864851
79	0x3dcf283b	0.10115095
80	0xbe833ead	-0.25633755
81	0xbe9e3a6a	-0.3090394
82	0xbe4e28bc	-0.20132726
83	0xbda406da	-0.08009119
84	0x3d6c3d05	0.05767538
85	0xbe158a09	-0.14603437
86	0xbc76477f	-0.015031694
87	0xbbd3b732	-0.0064610476
88	0xbd6e7f38	-0.058226794
89	0xbe9076fe	-0.28215784
90	0xbdbcf956	-0.092272446
91	0xbecf4789	-0.40484264
92	0x3d705a12	0.058679648
93	0xbd936936	-0.07197802
94	0x3d3f2133	0.04666252
95	0x3e2b391d	0.16721006
96	0xbdbb7fb6	-0.09155218
97	0xbe9018b6	-0.28143853
98	0x3d6f5b2f	0.05843657
99	0xbdaf6c0c	-0.0856553
100	0x3ca3261f	0.019915638
101	0xbe32fd91	-0.1747954
102	0xbd73b163	-0.05949534
103	0xbdcdf7ba	-0.10057016
104	0xbda2f13a	-0.079561666
105	0x3d201878	0.039085835
106	0x3d2c1433	0.04201145
107	0xbdde9bdb	-0.10869571
108	0x3e460710	0.19338632
109	0x3dc4636c	0.09589276
110	0xbe82d6fa	-0.2555464
111	0xbda6ca96	-0.08144109
112	0x3d590d35	0.05299111
113	0xbe4f1faf	-0.2022693
114	0x3e0bb4a9	0.13643135
115	0xbea1e874	-0.3162266
116	0xbe95b81b	-0.29242024
117	0xbdaae256	-0.083439514
118	0x3e0c8a37	0.137246
119	0xbdc07cf1	-0.09398831
120	0xbe034842	-0.12820533
121	0xbdf4e3c8	-0.11957508
122	0xbe7e3121	-0.24823429
123	0xbe697bc8	-0.22801125
124	0xbe666186	-0.2249814
125	0x3cd2a677	0.025714142
126	0xbd142948	-0.03617218
127	0xbd50411a	-0.050843336
128	0x3e45d02c	0.19317693
129	0xbe6619c1	-0.22470762
130	0xbda84396	-0.08216016
131	0xbde6fee3	-0.112790845
132	0xbcf4e287	-0.029893173
133	0xbd6ae0d1	-0.057343308
134	0xbcab4180	-0.020905256
135	0xbe30c677	-0.17263208
136	0xbe874728	-0.26421475
137	0xbe967897	-0.29388878
138	0xbf37211e	-0.7153491
139	0xbd95920d	-0.073032476
140	0xc00bbf38	-2.183546
141	0xbe015ac9	-0.12632288
142	0xbeb9b1f0	-0.36268568
143	0xbeddf6c0	-0.43352318
144	0xbe30d291	-0.17267825
145	0xbf5aa3fa	-0.8540646
146	0xbd4d2264	-0.050081626
147	0xbe078cc2	-0.13237289
148	0xbe808fbf	-0.2510967
149	0x3d95769c	0.072980136
150	0xbd72ddf2	-0.059293695
151	0xbeda0e16	-0.42588872
152	0xbf17ff0c	-0.59373546
153	0xbe99b1a2	-0.30018336
154	0xbec6033c	-0.38674343
155	0xbe91520a	-0.28382903
156	0xbeb48418	-0.3525703
157	0x3d942ab5	0.07234708
158	0xbf6ff1b0	-0.9372816
159	0xbd88182c	-0.066452354
160	0xbd8a1b2d	-0.067434646
161	0xbf038966	-0.5138153
162	0xbe13d8ae	-0.14438125
163	0x3bccfa82	0.006255449
164	0xbc7f99df	-0.015600651
165	0xbe4d0837	-0.20022665
166	0xbf8126d8	-1.0089979
167	0xbc985129	-0.018593388
168	0xbdc17598	-0.09446257
169	0xbe0e83f7	-0.13917528
170	0xbccf63df	-0.025316177
171	0xbbbb6a1c	-0.0057194363
172	0xbda3f860	-0.08006358
173	0x3d70af79	0.058761094
174	0xbf9e830b	-1.2383741
175	0xbdf14840	-0.11781359
176	0x3cb77f74	0.022399642
177	0xbde792e0	-0.11307311
178	0xbd8a118e	-0.067416295
179	0xbe98651b	-0.29764637
180	0xbddd10c7	-0.10794216
181	0x38b9dfb1	8.863153e-05
182	0xbcf9ef6a	-0.03050967
183	0xbf9e5616	-1.2370021
184	0xbe0910ed	-0.13385363
185	0xbe1af59f	-0.1513276
186	0xbf23372a	-0.6375605
187	0xbe75e12c	-0.24011678
188	0xbea965c5	-0.33085456
189	0xbe54aee7	-0.20769845
190	0xbf0e8ba9	-0.55681854
191	0xbe2aab5d	-0.16666932
192	0x400b1751	2.1732981
193	0xbc45b90b	-0.012068043
194	0x3f1ab307	0.60429424
195	0xc009a924	-2.1509485
196	0x3f2a07cb	0.6641814
197	0xbfb3d0f0	-1.4048138
198	0x4018ee3f	2.3895414
199	0xbe5672c1	-0.20942213
200	0xbf836412	-1.0264914
201	0x3ff405b5	1.9064242
202	0xbf432377	-0.7622599
203	0xbd3226b4	-0.04349394
204	0xbf43ef02	-0.7653657
205	0xbff5f1b8	-1.9214392
206	0x3fe3a806	1.7785652
207	0xbf6852b4	-0.90751195
208	0x40075a48	2.1148853
209	0xc0ea9d2c	-7.331686
210	0x403725e7	2.8616884
211	0x3bebd225	0.007196682
212	0xc0976c27	-4.731952
213	0x3d3241d2	0.043519802
214	0x3f933b98	1.1502562
215	0xbd2e8e31	-0.042616073
216	0x40af02a3	5.469072
217	0x3e81c5e5	0.25346294
218	0xbfa7c9bb	-1.3108438
219	0xbde2d2a8	-0.11075336
220	0x3e8c4c3f	0.2740192
221	0xbf2a5fc9	-0.66552407
222	0x40b375ba	5.608121
223	0x3f23d0f3	0.63990706
224	0x3dfc72db	0.123265944
225	0xbfab5d2d	-1.338781
226	0x3fcf0762	1.6174128
227	0x3dceed12	0.10103811
228	0x400eb519	2.2298033
229	0x3fc5cfb2	1.5454009
230	0xbf9666a8	-1.1750078
231	0x3fb8fd81	1.4452363
232	0xbeff6892	-0.49884468
233	0x403cd133	2.9502685
234	0xbdd9ca0f	-0.10634243
235	0xbf9abc5e	-1.2088735
236	0xc0258054	-2.5859575
237	0xbe8f51f0	-0.279922
238	0x3fc2e108	1.5224924
239	0x3d13fbb6	0.036128722
240	0x409a803f	4.828155
241	0x3dc2dd33	0.09514847
242	0xbe5c7e32	-0.21532515
243	0x3fad8a1e	1.3557775
244	0x40067e27	2.1014497
245	0xbf57559c	-0.84115005
246	0x3f2b401b	0.6689469
247	0x3fbf9794	1.4968133
248	0x405fd754	3.4975176
249	0xbdd3a0e3	-0.10333421
250	0xbfd4f8b4	-1.6638398
251	0xbdfe8158	-0.12427014
252	0x3f13505f	0.5754451
253	0x3fd524fc	1.6651912
254	0xc020f3d2	-2.5148816
255	0x3fe09136	1.7544315

fc2.bias f4 [32]
0	0xc08ca959	-4.3956723
1	0xbe4ae3f2	-0.19813517
2	0xbf08050f	-0.5313272
3	0xc0a23099	-5.0684323
4	0xc101f073	-8.121203
5	0xc0d90a23	-6.7824874
6	0x41aa033e	21.251583
7	0x3fa15090	1.2602711
8	0xbe781661	-0.24227287
9	0x40c8a32d	6.269919
10	0x3eafcced	0.34336033
11	0xc0eb99d8	-7.3625298
12	0xc09a32ba	-4.818692
13	0x3df425b5	0.119212545
14	0xc067402b	-3.6132915
15	0xc13169d2	-11.088335
16	0xbec50451	-0.38479856
17	0x3f6b8c39	0.9201084
18	0xbfd8e66d	-1.694532
19	0x415d3f65	13.827977
20	0xbf1937cd	-0.5985077
21	0xc08e6904	-4.4503193
22	0x411c248d	9.758924
23	0xc0a14034	-5.0390873
24	0xc10bce7b	-8.73791
25	0xbff9b422	-1.9508097
26	0x40aef2dc	5.467146
27	0x401e2fbf	2.4716642
28	0xc1049983	-8.287478
29	0xbe747f82	-0.23876765
30	0xbf1d64ff	-0.6148223
31	0x40937d34	4.6090336

fc3.weight f4 [16, 32]
0	0xbe072eb7	-0.13201414
1	0xbdcf5b53	-0.101248406
2	0x3e44af38	0.19207466
3	0xc05247ae	-3.285625
4	0xc09a4426	-4.820819
5	0xc0f61b0e	-7.6908026
6	0x3dd147f1	0.102188
7	0x3faa5d1f	1.3309668
8	0xbe373b03	-0.17893605
9	0xbf74c8f8	-0.95619154
10	0x4099f6e4	4.811388
11	0x3ec1ac8f	0.37826964
12	0xbffd70e2	-1.9800074
13	0xc11795a3	-9.474032
14	0xbd921b3e	-0.07134102
15	0x3eb6fd01	0.35739902
16	0x3e220568	0.15822375
17	0xc0d1d173	-6.5568175
18	0xc0727df9	-3.7889388
19	0x3e69aaa3	0.22818999
20	0x3ee1b18d	0.44080773
21	0xc0c09ed0	-6.0193863
22	0xc0e480c1	-7.140717
23	0xc073d690	-3.8099709
24	0xbdf08d0c	-0.117456526
25	0x4029f661	2.6556628
26	0x3e1d756b	0.15376823
27	0xc1008ba5	-8.034093
28	0x4019a519	2.4007018
29	0xbdac246c	-0.084053844
30	0xc0c5fdbf	-6.187225
31	0xbfe57435	-1.7926089
32	0xc08bc9af	-4.3683696
33	0xbe877a16	-0.26460332
34	0xbd840fd5	-0.06448332
35	0x3f0039fb	0.5008847
36	0x3fb8ec62	1.4447138
37	0x40eb0905	7.344851
38	0x3d10810b	0.035279315
39	0x3f69fa6d	0.91397744
40	0x3ceb825e	0.028748687
41	0x3f9483a0	1.1602669
42	0xbf57673d	-0.84141904
43	0x40381787	2.876436
44	0x3ee5b6d3	0.44866046
45	0x3ff5487d	1.9162747
46	0xbf9226a6	-1.1418045
47	0xc03c5189	-2.9424765
48	0xbdc303fe	-0.09522246
49	0x40075e17	2.1151178
50	0xc066b108	-3.6045551
51	0x3f1ceca7	0.612986
52	0x3dcdbfe1	0.100463636
53	0x40028bd4	2.0397844
54	0xbe27cb1d	-0.16386075
55	0xc06b80fe	-3.679748
56	0xbe90e0e2	-0.28296572
57	0xc0dc62b1	-6.8870473
58	0x3f2ce7c6	0.6754116
59	0xc0831e88	-4.097477
60	0x3d8965f3	0.067088984
61	0xbc24657b	-0.01003396
62	0xc0301ce3	-2.751763
63	0xc019cea9	-2.4032385
64	0xbdb72f43	-0.08944561
65	0x3de06466	0.109566495
66	0x3c4ee0ed	0.012626869
67	0xbe962874	-0.29327738
68	0xbdf7fec5	-0.1210914
69	0xbee60d02	-0.449318
70	0xbf34031d	-0.7031725
71	0xbef43268	-0.47694707
72	0x3e953771	0.2914386
73	0xbda5d76b	-0.08097728
74	0xbe64d5e8	-0.22347224
75	0x3d9c2bc2	0.07625534
76	0xbe85b340	-0.2611332
77	0xbe940a65	-0.2891418
78	0xbe849423	-0.2589427
79	0xbfc235dc	-1.5172687
80	0xbce00a85	-0.027348766
81	0xbe38485b	-0.17996351
82	0xbe899073	-0.26868019
83	0xbe9d65e1	-0.3074179
84	0x3e9a6ba5	0.3016025
85	0xbe2e7c40	-0.17039585
86	0xbf15abf1	-0.58465487
87	0xbdb1115e	-0.08645891
88	0xbf3b0a00	-0.73062134
89	0xbea8c685	-0.32963958
90	0xbe62b758	-0.22140253
91	0xbd8d0a98	-0.06886786
92	0xbd21b07a	-0.03947494
93	0xbe17e008	-0.14831555
94	0x3ebfa5dc	0.37431228
95	0xbe8e8397	-0.2783477
96	0xbeb69a83	-0.35664758
97	0x3c50a9db	0.012735809
98	0xbd0c934e	-0.03432017
99	0xbec947c4	-0.39312565
100	0xbdcae98b	-0.09907826
101	0xbe3ad1bc	-0.1824407
102	0xbf2d5204	-0.6770327
103	0xbf1e33ce	-0.617978
104	0x3dc0942f	0.09403264
105	0xbf39661b	-0.72421426
106	0xbe39fafc	-0.18162149
107	0x3e24721c	0.16059154
108	0xbe968617	-0.29399177
109	0xbe82bced	-0.25534764
110	0xbe9bbf71	-0.30419496
111	0xbf128ef2	-0.5724937
112	0x3e9904ef	0.29886577
113	0xbe45e964	-0.19327313
114	0x3e3c1b56	0.18369803
115	0xbe6b8fdc	-0.23004097
116	0x3cb0abb5	0.021566251
117	0x3c717568	0.0147374645
118	0xbefe06e6	-0.49614638
119	0x3bd82396	0.006596039
120	0xbe634676	-0.22194847
121	0xbe3817d3	-0.17977838
122	0xbea5dee8	-0.32396626
123	0xbe3aa102	-0.18225482
124	0xbcc2e571	-0.023791047
125	0x3eaa32c0	0.33241844
126	0xbe94a384	-0.29031003
127	0xbcb52087	-0.022110237
128	0xc06b47ae	-3.67625
129	0xbe565e9e	-0.20934531
130	0x3f98f772	1.1950514
131	0x3ed46dd5	0.41490045
132	0xc04996be	-3.1498256
133	0xc0b09073	-5.517633
134	0xc101729c	-8.090481
135	0x3f7edd2a	0.9955622
136	0x3eb6a867	0.35675356
137	0x3ee94701	0.45561984
138	0x3f5ea780	0.86974335
139	0xc059ea79	-3.404936
140	0xc03dad36	-2.963697
141	0x3fc5c9a0	1.5452156
142	0x3f9665ca	1.1749814
143	0x3fb42157	1.4072675
144	0xbcc0a30f	-0.023515252
145	0xc04f11cb	-3.235461
146	0xbf7d9505	-0.9905551
147	0xbfb36290	-1.4014454
148	0x3dd59bd1	0.1043011
149	0x3f961ee6	1.172818
150	0xbe8718f2	-0.2638622
151	0x40063f00	2.0975952
152	0xc016b58a	-2.3548303
153	0x3eee5fc2	0.46557432
154	0xbf03a078	-0.5141673
155	0xbf5680cd	-0.83790284
156	0xc004919c	-2.0713873
157	0x3c3f50ae	0.01167695
158	0x3f8d0779	1.1017905
159	0xbfe699d6	-1.8015697
160	0x4004c792	2.0746808
161	0xbdce2ba1	-0.10066915
162	0x3ee64e32	0.44981533
163	0xbfa5b986	-1.2947242
164	0xbf8f976b	-1.1218084
165	0xbdcc58fc	-0.0997791
166	0xc0139c2f	-2.3064077
167	0x3e6fab14	0.23405105
168	0x3d6f1d67	0.05837765
169	0xbede08a5	-0.4336597
170	0xc0d4f68c	-6.655096
171	0x3ff68597	1.9259518
172	0xc0871b14	-4.2220554
173	0x3f5aa417	0.8540663
174	0x3f2e42b3	0.68070525
175	0xc01bb371	-2.4328272
176	0xbdb4e3e8	-0.08832532
177	0xbbae2211	-0.0053141196
178	0xc012a15f	-2.2910993
179	0xc0055ede	-2.0839152
180	0x3e12ce4c	0.14336509
181	0xbfba8cab	-1.4574178
182	0xc0133971	-2.300381
183	0x4034feb6	2.8280463
184	0xc03ba119	-2.9317076
185	0x3f83c7e7	1.029538
186	0xc03eec12	-2.9831586
187	0x4090bb47	4.522861
188	0xbf43fc8a	-0.7655722
189	0xbe492af6	-0.19645295
190	0xc09ecac8	-4.9622536
191	0x4015bca3	2.3396385
192	0xbf23a126	-0.6391777
193	0x3e119fa8	0.1422106
194	0xbed6c9e8	-0.41950917
195	0xbf092a33	-0.53580016
196	0xbe94a8d4	-0.29035056
197	0xc0bf13ea	-5.971181
198	0xbf8ce04b	-1.1005949
199	0x3e82da7d	0.25557318
200	0x3e1241fb	0.14282982
201	0xc0949733	-4.643457
202	0xc11fb04a	-9.980539
203	0xc0cdbec5	-6.4295373
204	0xbfe0e9b8	-1.7571325
205	0x3fa8b78c	1.3181014
206	0xbf747964	-0.9549773
207	0xbffe2e0c	-1.9857802
208	0xbe9d0344	-0.30666554
209	0xc0725054	-3.7861528
210	0x403a2f89	2.9091513
211	0xc0aa1f54	-5.316324
212	0xbdd444d2	-0.10364689
213	0xbf6a50ba	-0.9152943
214	0xc050ba75	-3.2613804
215	0xbfcd18ec	-1.602323
216	0xbd140320	-0.036135793
217	0x4042dfd0	3.0449104
218	0xc0656bd6	-3.5847068
219	0x408b17f5	4.3466744
220	0x3f59d41c	0.8508928
221	0xbe44f846	-0.19235334
222	0x408f79f6	4.483638
223	0xc0198f3f	-2.399368
224	0xc08c5f1a	-4.386609
225	0x3e879049	0.26477268
226	0xbd4a15b0	-0.04933709
227	0xc08136ff	-4.0379634
228	0x4012581d	2.286628
229	0xbf8db9bf	-1.107231
230	0x3ec13ed3	0.37743244
231	0xc06b40b2	-3.6758237
232	0x3e5f7b03	0.21824269
233	0x3fda59ec	1.7058692
234	0x402bf13b	2.6865985
235	0xbf73235a	-0.9497582
236	0xbf853b16	-1.0408657
237	0xc01ca72e	-2.4477038
238	0xc0003e7e	-2.0038142
239	0xbfc7d9f4	-1.5613389
240	0xbd9d767b	-0.07688614
241	0x3f7ecd9e	0.99532497
242	0x403d2815	2.9555714
243	0xc0b1539c	-5.541456
244	0xbe42a4f1	-0.19008233
245	0xbfa0168f	-1.2506884
246	0xbede3a6b	-0.43403944
247	0x3f1dcfce	0.6164521
248	0xc03b60f5	-2.9277928
249	0x3fc8033c	1.5625987
250	0xbfa9f553	-1.3277992
251	0x3dbbec39	0.09175915
252	0x4021eb84	2.5299997
253	0xbdaf97c4	-0.08573869
254	0x3fb0eeaf	1.382284
255	0x407bed31	3.936352

fc3.bias f4 [16]
0	0xc0fdae93	-7.9275603
1	0x412e1052	10.878984
2	0xbf3cb0d8	-0.7370734
3	0xbf911013	-1.133303
4	0xc198aed9	-19.085375
5	0xc116c726	-9.42362
6	0xc0dd1887	-6.909244
7	0x40c5a484	6.1763325
8	0x417a55f9	15.645989
9	0xc1344700	-11.267334
10	0xbef38f1f	-0.4757013
11	0xc10dd69f	-8.864898
12	0xbeab4a2c	-0.33455026
13	0xbffa3885	-1.9548498
14	0xc11c59c5	-9.771916
15	0x40544386	3.3166213

fc4.weight f4 [8, 16]
0	0xbf216fd0	-0.6306124
1	0xbefd72c1	-0.49501613
2	0xbe9ba924	-0.30402482
3	0x3ddf7d40	0.109125614
4	0xbf47cd9d	-0.78048116
5	0xbe4d6891	-0.2005942
6	0xbdecd270	-0.11563575
7	0xbe6971bb	-0.22797291
8	0xbe4139ec	-0.18869752
9	0xbf8a5e17	-1.0809964
10	0xbe448e3d	-0.19194885
11	0xbeaae0e6	-0.3337471
12	0xbd81e948	-0.06343323
13	0xbe901517	-0.2814109
14	0xbe8650a8	-0.2623341
15	0xbf0b9acd	-0.5453308
16	0xbfa0bbb7	-1.2557286
17	0x3e322684	0.17397505
18	0x3e2fa7da	0.17153874
19	0xbe74eacb	-0.23917691
20	0xbf64b97e	-0.8934554
21	0xbf40d20f	-0.75320524
22	0xbf0f5ec7	-0.56003994
23	0x3fbace5d	1.4594227
24	0x3f1c1a02	0.60977185
25	0xbe981d68	-0.29709935
26	0xbd261d92	-0.040555544
27	0xbf68b574	-0.90901875
28	0xbee6b898	-0.4506271
29	0x3f84cc90	1.0374928
30	0xbeeff256	-0.46864575
31	0x3eebeb98	0.4607818
32	0xbe99bf09	-0.3002856
33	0xbfa2fddd	-1.2733723
34	0x3e9e0652	0.30864197
35	0x3bb079f3	0.005385631
36	0x3b4fd37d	0.003171175
37	0x3f04c9a6	0.5187019
38	0xbc9b6fb3	-0.01897416
39	0xc0537638	-3.3040905
40	0xbeadc446	-0.33938807
41	0xc0c3b632	-6.1159906
42	0x3d00cc73	0.031444978
43	0xbe2060e6	-0.15661964
44	0xbf9bb755	-1.2165323
45	0xbd8d7f0b	-0.06908997
46	0xc120aed9	-10.042687
47	0xc1034a28	-8.205605
48	0x3dba1646	0.090862796
49	0x3f24509d	0.64185506
50	0x3d8e0eba	0.069364026
51	0xba04f00e	-0.00050711713
52	0xc012b2cf	-2.2921636
53	0x3f57195b	0.84023064
54	0x3c8ab40d	0.016931558
55	0x40005ce3	2.0056694
56	0xc01bd26b	-2.434718
57	0xc1044e84	-8.269169
58	0xbe0509ef	-0.1299207
59	0x3fbf3bd8	1.4940138
60	0xbf4034c0	-0.7508049
61	0x3e62912a	0.22125688
62	0xc028d897	-2.6382196
63	0xbe50bc70	-0.20384383
64	0xbccb5bff	-0.02482414
65	0xbf473ece	-0.7783021
66	0x3c0e579f	0.008687883
67	0x3d0234d8	0.031788677
68	0x3f9d2dc2	1.2279589
69	0x3fb854d3	1.4400886
70	0x3f9b403e	1.212898
71	0x3f51a8c5	0.81898147
72	0xbea250c1	-0.31702235
73	0x3e057440	0.13032627
74	0xbe01afc9	-0.12664713
75	0x3e853192	0.26014382
76	0x3f2935da	0.66097796
77	0x3fa152c3	1.2603382
78	0x3f059dd3	0.52193946
79	0xbf1c9490	-0.6116419
80	0xbf8235f6	-1.0172718
81	0xbf3972c1	-0.72440726
82	0x3d20ccbd	0.039257754
83	0xbe867ca8	-0.2626698
84	0xbf0490d6	-0.517835
85	0xbdc35b7e	-0.09538935
86	0xbe6a8992	-0.22904041
87	0xbcb87831	-0.02251825
88	0xbf06a4f1	-0.5259543
89	0xbfd09c51	-1.6297704
90	0x3e7b6835	0.2455147
91	0xbe5f992b	-0.21835773
92	0xbf1ab1e5	-0.60427696
93	0xbf98d5bc	-1.1940227
94	0xbf244a00	-0.64175415
95	0xbf72637e	-0.94683063
96	0xbee90d50	-0.4551797
97	0xbea780b9	-0.32715395
98	0xbecefc0c	-0.40426672
99	0xbd934054	-0.07190004
100	0xbf3ffdf5	-0.7499688
101	0x3b1531bb	0.0022765237
102	0xbef81421	-0.48452857
103	0xbf266b29	-0.65007263
104	0xbe983af4	-0.29732478
105	0xbeb2d5ec	-0.34928834
106	0xbd58a590	-0.052892268
107	0xbf362a14	-0.71157956
108	0xbe76feb0	-0.24120593
109	0xbc803165	-0.015648553
110	0xbf1b25c2	-0.6060449
111	0xbed97282	-0.42470175
112	0xbfef9417	-1.8717068
113	0xbf75f70e	-0.960801
114	0xbf209b83	-0.6273729
115	0xbea82e1d	-0.32847682
116	0xbf412add	-0.7545603
117	0xbe68f1ef	-0.2274854
118	0xbf239e9e	-0.63913906
119	0xbd748db6	-0.05970546
120	0xbfbc5750	-1.4714146
121	0xbf8ae733	-1.0851806
122	0xbd422733	-0.047400665
123	0xbfd84e99	-1.6898986
124	0xbf830f6e	-1.0239084
125	0xbdf2d1f9	-0.11856455
126	0xbefe732e	-0.4969725
127	0xbf3ffd66	-0.7499603

fc4.bias f4 [8]
0	0xbf2bc039	-0.67090183
1	0x41cc1008	25.507828
2	0xbfd0e171	-1.6318799
3	0xc10c6d4c	-8.776684
4	0xc09fe0b7	-4.996181
5	0xc05f8d80	-3.4930115
6	0xbfaf2db9	-1.3685828
7	0xc072b4be	-3.7922816

fc5.weight f4 [4, 8]
0	0x3e7416c2	0.23836806
1	0xbfb3dbcc	-1.4051452
2	0xbe7e32c7	-0.24824058
3	0xbdec42e0	-0.11536193
4	0xbf377861	-0.7166806
5	0x3e5e5783	0.2171307
6	0xbe16b5ee	-0.14717838
7	0xbc938aa7	-0.01801045
8	0xbe1aac09	-0.15104689
9	0x3e32d032	0.17462233
10	0xbe157f6b	-0.14599387
11	0x3dcedfb5	0.101012625
12	0xbde925b9	-0.11384148
13	0xbeace1fb	-0.3376616
14	0x3be072cd	0.006849623
15	0xbc81bd9a	-0.01583748
16	0x3dc5c37c	0.09656426
17	0xbf003538	-0.50081205
18	0xbe76b1e4	-0.24091297
19	0xbeb5f42f	-0.3553786
20	0xbf35082f	-0.7071561
21	0xbd93ba66	-0.07213287
22	0xbebe48ae	-0.37164825
23	0xbef037d8	-0.46917605
24	0xbd357eb5	-0.04431029
25	0xbe7afc0c	-0.24510211
26	0xbe32b34b	-0.17451207
27	0xbee6657b	-0.44999298
28	0x3ddc92af	0.10770165
29	0x3e1d7814	0.15377837
30	0x3e211934	0.1573227
31	0xbf16417e	-0.58693683

fc5.bias f4 [4]
0	0xc00feba0	-2.2487564
1	0x406213a4	3.5324488
2	0xbf540569	-0.82820755
3	0xc0174116	-2.3633475

fc6.weight f4 [2, 4]
0	0x3f3728e2	0.7154676
1	0x3f18c329	0.5967279
2	0x3f15e867	0.5855774
3	0x3e2ada23	0.16684775
4	0x3ecd69a5	0.40119663
5	0x3eb89f67	0.36059114
6	0x3e712e0d	0.23552723
7	0x3ea13617	0.3148658

fc6.bias f4 [2]
0	0x3e5283b1	0.20558049
1	0xbe5281dd	-0.20557351
